run_scripts/neusum.pth (torch_old, 457922 bytes, 28 tensors)

sentence_encoder.model_embeddings.source.weight f4 [14, 300]
000000 00 00 00 00 00 00 00 00 00 00 00 00 00 00 00 00
       0.0 0.0 0.0 0.0
000010 00 00 00 00 00 00 00 00 00 00 00 00 00 00 00 00
       0.0 0.0 0.0 0.0
000020 00 00 00 00 00 00 00 00 00 00 00 00 00 00 00 00
       0.0 0.0 0.0 0.0
000030 00 00 00 00 00 00 00 00 00 00 00 00 00 00 00 00
       0.0 0.0 0.0 0.0
000040 00 00 00 00 00 00 00 00 00 00 00 00 00 00 00 00
       0.0 0.0 0.0 0.0
000050 00 00 00 00 00 00 00 00 00 00 00 00 00 00 00 00
       0.0 0.0 0.0 0.0
000060 00 00 00 00 00 00 00 00 00 00 00 00 00 00 00 00
       0.0 0.0 0.0 0.0
000070 00 00 00 00 00 00 00 00 00 00 00 00 00 00 00 00
       0.0 0.0 0.0 0.0
000080 00 00 00 00 00 00 00 00 00 00 00 00 00 00 00 00
       0.0 0.0 0.0 0.0
000090 00 00 00 00 00 00 00 00 00 00 00 00 00 00 00 00
       0.0 0.0 0.0 0.0
0000a0 00 00 00 00 00 00 00 00 00 00 00 00 00 00 00 00
       0.0 0.0 0.0 0.0
0000b0 00 00 00 00 00 00 00 00 00 00 00 00 00 00 00 00
       0.0 0.0 0.0 0.0
0000c0 00 00 00 00 00 00 00 00 00 00 00 00 00 00 00 00
       0.0 0.0 0.0 0.0
0000d0 00 00 00 00 00 00 00 00 00 00 00 00 00 00 00 00
       0.0 0.0 0.0 0.0
0000e0 00 00 00 00 00 00 00 00 00 00 00 00 00 00 00 00
       0.0 0.0 0.0 0.0
0000f0 00 00 00 00 00 00 00 00 00 00 00 00 00 00 00 00
       0.0 0.0 0.0 0.0
000100 00 00 00 00 00 00 00 00 00 00 00 00 00 00 00 00
       0.0 0.0 0.0 0.0
000110 00 00 00 00 00 00 00 00 00 00 00 00 00 00 00 00
       0.0 0.0 0.0 0.0
000120 00 00 00 00 00 00 00 00 00 00 00 00 00 00 00 00
       0.0 0.0 0.0 0.0
000130 00 00 00 00 00 00 00 00 00 00 00 00 00 00 00 00
       0.0 0.0 0.0 0.0
000140 00 00 00 00 00 00 00 00 00 00 00 00 00 00 00 00
       0.0 0.0 0.0 0.0
000150 00 00 00 00 00 00 00 00 00 00 00 00 00 00 00 00
       0.0 0.0 0.0 0.0
000160 00 00 00 00 00 00 00 00 00 00 00 00 00 00 00 00
       0.0 0.0 0.0 0.0
000170 00 00 00 00 00 00 00 00 00 00 00 00 00 00 00 00
       0.0 0.0 0.0 0.0
000180 00 00 00 00 00 00 00 00 00 00 00 00 00 00 00 00
       0.0 0.0 0.0 0.0
000190 00 00 00 00 00 00 00 00 00 00 00 00 00 00 00 00
       0.0 0.0 0.0 0.0
0001a0 00 00 00 00 00 00 00 00 00 00 00 00 00 00 00 00
       0.0 0.0 0.0 0.0
0001b0 00 00 00 00 00 00 00 00 00 00 00 00 00 00 00 00
       0.0 0.0 0.0 0.0
0001c0 00 00 00 00 00 00 00 00 00 00 00 00 00 00 00 00
       0.0 0.0 0.0 0.0
0001d0 00 00 00 00 00 00 00 00 00 00 00 00 00 00 00 00
       0.0 0.0 0.0 0.0
0001e0 00 00 00 00 00 00 00 00 00 00 00 00 00 00 00 00
       0.0 0.0 0.0 0.0
0001f0 00 00 00 00 00 00 00 00 00 00 00 00 00 00 00 00
       0.0 0.0 0.0 0.0
000200 00 00 00 00 00 00 00 00 00 00 00 00 00 00 00 00
       0.0 0.0 0.0 0.0
000210 00 00 00 00 00 00 00 00 00 00 00 00 00 00 00 00
       0.0 0.0 0.0 0.0
000220 00 00 00 00 00 00 00 00 00 00 00 00 00 00 00 00
       0.0 0.0 0.0 0.0
000230 00 00 00 00 00 00 00 00 00 00 00 00 00 00 00 00
       0.0 0.0 0.0 0.0
000240 00 00 00 00 00 00 00 00 00 00 00 00 00 00 00 00
       0.0 0.0 0.0 0.0
000250 00 00 00 00 00 00 00 00 00 00 00 00 00 00 00 00
       0.0 0.0 0.0 0.0
000260 00 00 00 00 00 00 00 00 00 00 00 00 00 00 00 00
       0.0 0.0 0.0 0.0
000270 00 00 00 00 00 00 00 00 00 00 00 00 00 00 00 00
       0.0 0.0 0.0 0.0
000280 00 00 00 00 00 00 00 00 00 00 00 00 00 00 00 00
       0.0 0.0 0.0 0.0
000290 00 00 00 00 00 00 00 00 00 00 00 00 00 00 00 00
       0.0 0.0 0.0 0.0
0002a0 00 00 00 00 00 00 00 00 00 00 00 00 00 00 00 00
       0.0 0.0 0.0 0.0
0002b0 00 00 00 00 00 00 00 00 00 00 00 00 00 00 00 00
       0.0 0.0 0.0 0.0
0002c0 00 00 00 00 00 00 00 00 00 00 00 00 00 00 00 00
       0.0 0.0 0.0 0.0
0002d0 00 00 00 00 00 00 00 00 00 00 00 00 00 00 00 00
       0.0 0.0 0.0 0.0
0002e0 00 00 00 00 00 00 00 00 00 00 00 00 00 00 00 00
       0.0 0.0 0.0 0.0
0002f0 00 00 00 00 00 00 00 00 00 00 00 00 00 00 00 00
       0.0 0.0 0.0 0.0
000300 00 00 00 00 00 00 00 00 00 00 00 00 00 00 00 00
       0.0 0.0 0.0 0.0
000310 00 00 00 00 00 00 00 00 00 00 00 00 00 00 00 00
       0.0 0.0 0.0 0.0
000320 00 00 00 00 00 00 00 00 00 00 00 00 00 00 00 00
       0.0 0.0 0.0 0.0
000330 00 00 00 00 00 00 00 00 00 00 00 00 00 00 00 00
       0.0 0.0 0.0 0.0
000340 00 00 00 00 00 00 00 00 00 00 00 00 00 00 00 00
       0.0 0.0 0.0 0.0
000350 00 00 00 00 00 00 00 00 00 00 00 00 00 00 00 00
       0.0 0.0 0.0 0.0
000360 00 00 00 00 00 00 00 00 00 00 00 00 00 00 00 00
       0.0 0.0 0.0 0.0
000370 00 00 00 00 00 00 00 00 00 00 00 00 00 00 00 00
       0.0 0.0 0.0 0.0
000380 00 00 00 00 00 00 00 00 00 00 00 00 00 00 00 00
       0.0 0.0 0.0 0.0
000390 00 00 00 00 00 00 00 00 00 00 00 00 00 00 00 00
       0.0 0.0 0.0 0.0
0003a0 00 00 00 00 00 00 00 00 00 00 00 00 00 00 00 00
       0.0 0.0 0.0 0.0
0003b0 00 00 00 00 00 00 00 00 00 00 00 00 00 00 00 00
       0.0 0.0 0.0 0.0
0003c0 00 00 00 00 00 00 00 00 00 00 00 00 00 00 00 00
       0.0 0.0 0.0 0.0
0003d0 00 00 00 00 00 00 00 00 00 00 00 00 00 00 00 00
       0.0 0.0 0.0 0.0
0003e0 00 00 00 00 00 00 00 00 00 00 00 00 00 00 00 00
       0.0 0.0 0.0 0.0
0003f0 00 00 00 00 00 00 00 00 00 00 00 00 00 00 00 00
       0.0 0.0 0.0 0.0

sentence_encoder.sent_encoder.weight_ih_l0 f4 [60, 300]
000000 15 fd 4c bd 40 e7 1f 3d 93 69 4e 3e 1d 01 41 be
       -0.050046045 0.039038897 0.20157461 -0.18848081
000010 ef 3d ba bd d1 2e ea 3d 4d ae 8d 3d 49 c6 47 bc
       -0.09093844 0.11434711 0.06918011 -0.012193271
000020 69 28 1c 3e 64 b3 0d be cb 3b ea 3d b1 fd a7 bd
       0.1524979 -0.13837963 0.11437186 -0.08202685
000030 cb 4c 4c be d0 5b 58 3e fd 96 24 3c 30 ad d6 bd
       -0.19951169 0.21128774 0.010045764 -0.10482252
000040 07 93 df bd ba af 46 3e 42 af 51 3e 6a b6 bc bd
       -0.10916715 0.19402972 0.20477012 -0.0921448
000050 f9 bd f8 bd 03 72 09 be 62 5a 88 3d 2d 06 2f be
       -0.121456094 -0.13422398 0.06657864 -0.170922
000060 54 35 ee 3d 86 5c 15 3d c7 4d 34 3d 65 79 05 be
       0.11631265 0.03646519 0.044019487 -0.1303459
000070 4d a8 01 3e 45 8f d0 bd 2a ee 55 be 6e 21 58 be
       0.12661858 -0.101835765 -0.20891634 -0.21106502
000080 cf ee 25 bd 1f 23 58 be 07 fa 4e be 4a 4e e2 bd
       -0.04051095 -0.21107148 -0.20212565 -0.11050089
000090 67 c5 2d 3b 96 ac c6 3c 97 13 60 be cc b7 85 bd
       0.0026515366 0.024252217 -0.21882473 -0.06529197
0000a0 56 1b 81 bd 89 e3 87 3d 27 13 33 be 26 bc 47 be
       -0.06304042 0.06635196 -0.17487775 -0.19505367
0000b0 59 b2 e3 3d 56 9b 99 3d b2 1f 34 be dc 23 01 3d
       0.111180015 0.07500331 -0.17590216 0.03152834
0000c0 f3 bf 2b 3d 20 8f fc bd a5 6e dd 3b a1 d6 d1 bd
       0.041931104 -0.123319864 0.0067575746 -0.10246015
0000d0 22 f0 e8 3d 8e 1e 40 be b2 a5 b8 3d c5 1c 20 3e
       0.11373927 -0.18761656 0.09015979 0.15635975
0000e0 b8 79 a7 3d 92 27 42 3e c9 86 13 3e b1 57 ad bd
       0.08177513 0.18960407 0.14406885 -0.084639914
0000f0 16 d4 21 be 6b ee db bd 31 c3 ed bd e6 43 2b bd
       -0.1580356 -0.10738834 -0.116094954 -0.0418128
000100 4f b1 8e 3d be b8 af bd 5f 52 e2 3d 0a bf 69 bc
       0.06967413 -0.08580159 0.11050867 -0.014266739
000110 94 a1 1a 3e c0 63 11 be c3 42 f9 bd 9d c2 c2 3d
       0.151007 -0.14198208 -0.12170937 0.09509776
000120 54 96 60 3e 80 42 85 3d c8 86 22 bb 89 f8 52 3e
       0.21932346 0.065068245 -0.0024799574 0.20602621
000130 e7 a0 41 3e 97 49 03 be 7d c7 ac bd cc 6f 98 bd
       0.18909036 -0.12821041 -0.08436487 -0.074431986
000140 47 32 af bd 76 39 2d be 5c a6 35 3e 90 cf c4 bd
       -0.085545115 -0.16916451 0.17739242 -0.09609902
000150 97 0e de bd 4d 3c 00 3c 41 5f dc 3d da 63 1e 3e
       -0.108426265 0.007826877 0.10760356 0.15467778
000160 cb 8c be bd 74 63 00 3e f4 4f 94 bd aa 96 f0 3d
       -0.09304198 0.12537938 -0.07241812 0.11747487
000170 85 0a c4 bd 8a 02 a0 3d 52 fc 62 be 8c c9 0a be
       -0.09572319 0.07812984 -0.22166565 -0.13553447
000180 9b 87 a2 3d e5 63 30 3d 01 5c e8 3d 8f b1 19 3e
       0.07936021 0.043064017 0.11345673 0.1500914
000190 8a 9b 40 bd af ca c3 bd c7 a1 3e be 99 88 b7 bd
       -0.047023334 -0.09560143 -0.186164 -0.08961601
0001a0 50 61 10 3e 7f 26 26 be ff a9 d9 bd 7c 55 ba bd
       0.14099622 -0.16225623 -0.10628127 -0.09098336
0001b0 92 38 5d 3d 11 11 14 be e2 50 ae bd 20 93 51 bd
       0.054009028 -0.14459635 -0.08511521 -0.0511657
0001c0 7e 84 22 be b7 2b 65 bd 6f 59 15 3d b6 dc 2b bd
       -0.15870854 -0.055949893 0.036462244 -0.041958533
0001d0 91 08 da 3d 1d c7 58 bd 82 82 6e 3d 8b 36 04 be
       0.10646165 -0.052924264 0.05822993 -0.12911431
0001e0 f2 e1 a3 bd 50 be 3c be 6e 99 f6 bc bd 1c 08 be
       -0.0800208 -0.18431973 -0.030102458 -0.13292213
0001f0 b6 c7 55 be a9 ce 50 be 0a df d1 3c 27 5f b9 bd
       -0.20876965 -0.20391335 0.025619049 -0.09051352
000200 21 96 44 be a7 a6 b7 bd ec bd 35 be 59 29 10 be
       -0.19197895 -0.08967333 -0.1774823 -0.14078273
000210 fe 43 a2 3c 59 90 19 3e ac 10 92 bd 93 47 40 be
       0.019807812 0.1499647 -0.07132086 -0.18777303
000220 2c 17 f2 3d 87 6a 07 be 10 32 e1 bd c1 f6 07 be
       0.11820826 -0.1322423 -0.10995877 -0.13277723
000230 58 6c 2b be 83 76 5d 3d 48 41 d8 bd 4c 3a d9 3d
       -0.16740549 0.0540681 -0.105593264 0.10606822
000240 2a 7a 54 bc fa 6a 32 bd a5 8d 1f 3c 3e 1e 21 be
       -0.012968579 -0.043559052 0.0097383605 -0.15734193
000250 88 4f 39 bd a8 43 d1 3d 44 a8 88 bc 01 26 b8 bb
       -0.045241863 0.102179825 -0.016681798 -0.005619765
000260 bf ab 4e 3e 7e 8f 4a 3d 07 ee 59 be 6a cd 2c be
       0.20182703 0.04945325 -0.21282206 -0.16875234
000270 2d 7c c0 bd 44 b0 03 bc 5a 7d a6 bd ca 95 cd 3d
       -0.09398685 -0.0080376305 -0.08129378 0.100383356
000280 05 62 cb 3d 2b b4 44 3e 96 34 85 bd fa ec 26 3e
       0.09930805 0.19209354 -0.065041706 0.16301337
000290 63 b5 37 3e e2 e2 09 3e e2 21 45 3e 3d ec 87 3d
       0.17940287 0.13465455 0.19251207 0.06636856
0002a0 57 b5 ae 3d 28 ae 0b be 64 16 30 be 05 81 48 3e
       0.085306816 -0.13640654 -0.17196041 0.19580467
0002b0 93 97 dc 3d 74 f2 3b be 2d e4 7a bd 9f ea 82 3d
       0.10771098 -0.18354207 -0.06125276 0.06392407
0002c0 da 86 3c bd 3b 51 3e be e5 63 07 3c bb e8 21 3e
       -0.046027042 -0.18585674 0.008263563 0.15811436
0002d0 a7 98 95 3d 8a 73 1c 3e 98 01 e1 bd 1d 52 c0 3d
       0.07304507 0.1527845 -0.10986632 0.09390662
0002e0 1a ac e5 bc d9 63 3e bd 54 b2 34 3e f4 4a 5f be
       -0.028036166 -0.04648194 0.17646152 -0.21805936
0002f0 db 1c de 3d 89 66 50 3e e1 db 11 3e 2c 90 dc 3c
       0.108453475 0.20351614 0.14244033 0.026924215
000300 c9 a2 55 3e 81 ca c1 3d 2b 24 56 be 7b f5 2b bd
       0.20862879 0.09462453 -0.20912234 -0.041982155
000310 f1 ec 14 be 87 3a 19 be cd 27 dc 3d 5e dc b4 3d
       -0.14543511 -0.14963733 0.10749779 0.08831094
000320 ec b1 bf 3d 6d ad 15 3e 5d 9d e5 3d 72 e1 0e 3d
       0.09360108 0.14616938 0.11211655 0.03488297
000330 8a ba 46 3e 65 ec 1e be 9c 73 ce 3d f8 a2 2f 3d
       0.19407097 -0.15519865 0.100806445 0.04288003
000340 86 a1 55 3e 16 d4 d2 bc 85 d3 38 be 50 9f 41 3e
       0.20862398 -0.025735896 -0.18049438 0.18908429
000350 9e ae e8 3d 96 37 d7 3d 22 62 27 3e 16 95 3d be
       0.113614306 0.10508649 0.16346028 -0.18513903
000360 5d 71 60 3e 97 81 24 3e 60 9e c7 3d dc 43 ac bd
       0.21918245 0.1606506 0.097470045 -0.08411381
000370 2f 4e fc 3d 0b f2 06 3e 7b e8 c2 3d f6 59 62 3e
       0.123196 0.1317827 0.095169984 0.2210463
000380 59 68 17 3e ed a6 43 3e e3 57 3a be 93 d0 41 3e
       0.14785899 0.19106646 -0.18197589 0.18927221
000390 7e 3b 03 bd 49 b7 39 3e 45 09 e2 3d f5 be 05 3d
       -0.032039158 0.18136324 0.11036924 0.032652814
0003a0 fc 81 e1 3d 96 bc 09 be 13 d5 da 3d 3a 3c ca bd
       0.11011121 -0.13450846 0.10685172 -0.098747686
0003b0 55 d4 de 3d 86 9b d5 bd de e2 15 be 7a 7c 36 be
       0.10880343 -0.10430054 -0.14637324 -0.17820922
0003c0 a1 b1 2a be f7 01 23 3d 06 a0 25 be d1 6f 11 be
       -0.16669323 0.039796796 -0.16174325 -0.14202811
0003d0 1a a7 2d 3b b9 6a 79 3c 46 e1 a9 bd 74 06 98 bd
       0.0026497305 0.015223199 -0.082949206 -0.07423106
0003e0 03 6a 2e be 8a 25 4c 3b 7f 98 58 3e 9e cb 61 be
       -0.17032628 0.0031150305 0.21151923 -0.2205033
0003f0 46 a9 c3 bd 68 00 7d bd bc 6c 3b 3e 87 42 a0 bc
       -0.09553771 -0.061767966 0.18303198 -0.019562973

sentence_encoder.sent_encoder.weight_hh_l0 f4 [60, 20]
000000 a0 ec 87 bd ef 73 50 3c 2f 16 ad bc 17 ae 39 3e
       -0.066369295 0.012722953 -0.021128742 0.18132816
000010 09 4d ef bb 43 19 f0 3d 9e ee 2c 3e 55 7b 30 3e
       -0.0073028845 0.11723568 0.168879 0.17234547
000020 75 98 b1 bd f4 d2 e8 3d 0b d5 fe 3c e1 d5 df bd
       -0.08671657 0.11368361 0.031107446 -0.10929466
000030 dc df 2c be 93 26 3b be 8d 36 09 3d c7 7c 16 3e
       -0.1688227 -0.18276434 0.03349929 0.14696036
000040 12 6e 0d 3c 0b 28 56 be 9f c9 65 bd c1 99 41 3e
       0.0086322 -0.20913713 -0.056100484 0.18906309
000050 39 e3 da 3d 2f 53 1a be ae 6d 2c 3e bb 79 49 3e
       0.106878705 -0.15070795 0.16838714 0.19675343
000060 13 6a 76 3d a1 75 04 be 84 2f 02 3e 94 40 4e 3e
       0.060159754 -0.12935497 0.12713438 0.20141822
000070 42 25 48 be 70 5d 63 be b5 a0 ff 3d 17 a6 e8 3d
       -0.19545463 -0.22203612 0.12481824 0.11359804
000080 9e 0f 09 bd 29 61 18 bb 2b ca 9a bd b0 f0 be 3c
       -0.03346216 -0.0023251271 -0.07558092 0.023308128
000090 86 e3 28 3d 81 31 da bc 9d 08 b6 3d 6f 96 68 3d
       0.04123261 -0.026634933 0.088883616 0.05678409
0000a0 33 c7 15 be 66 60 02 be 0b 59 30 be 6b 21 30 bd
       -0.1462677 -0.12732086 -0.17221467 -0.04300062
0000b0 88 b4 4d 3e f3 aa 34 bc fc e0 05 be 0c b3 5a be
       0.20088398 -0.011027086 -0.13074106 -0.21357363
0000c0 2e 52 f9 bc 6c 56 10 3e 62 1c a5 bd ab ae e4 3d
       -0.030434694 0.14095467 -0.08062054 0.11166128
0000d0 cb 9f 34 3e 9f b1 27 3e 90 74 61 be 8b 87 94 bd
       0.17639081 0.16376351 -0.22017121 -0.07252415
0000e0 56 5a 41 be d2 0f 0d bc 2e 8a 50 3e 77 87 41 3c
       -0.18882117 -0.008609729 0.20365211 0.0118120825
0000f0 fa 72 1a be d6 65 e6 3d 9b af 20 bd 48 b3 94 bd
       -0.15082923 0.112498924 -0.03922997 -0.07260758
000100 33 37 48 3e 8f 62 0e 3e 51 43 00 3e 26 fe 56 be
       0.19552307 0.13904785 0.12525679 -0.20995387
000110 0b 6c 54 be fe 93 87 bd 07 d7 06 3e 36 cd 10 be
       -0.2074434 -0.06620024 0.13167964 -0.14140782
000120 4e 7e c9 bd 1c 61 82 bd 15 5b 9c bd 01 c5 11 3e
       -0.09838544 -0.063661784 -0.0763456 0.14235307
000130 c6 09 b6 3d 01 2c e8 3d 9f de 31 bc 46 70 3e 3e
       0.08888583 0.11336518 -0.0108563 0.18597516
000140 18 15 eb ba 00 ba 77 3c 97 bb 95 bd da 68 e7 3d
       -0.0017935364 0.015120029 -0.073111705 0.11299296
000150 68 aa 1c 3d 48 ef a8 3d 87 23 8b 3d b1 d3 4f be
       0.03824845 0.08248764 0.06793886 -0.20295598
000160 88 d2 e3 bc 6e 7a 06 3e 52 fc 04 be d5 59 3f 3e
       -0.02781035 0.1313264 -0.12986878 0.18686612
000170 42 26 95 3d 0c 13 c6 bd 0a 72 25 3e 2d 2c 05 3e
       0.07282688 -0.09671602 0.16156784 0.13005133
000180 b3 d3 49 be f8 12 55 be 32 86 0d be ca d4 f9 3d
       -0.19709663 -0.20808017 -0.13820723 0.121987894
000190 cf 19 ae 3d d8 a5 2c be a6 b2 c1 bd d5 c3 0d 3e
       0.08501016 -0.1686014 -0.094579026 0.13844235
0001a0 35 7d 33 bc e1 54 d1 bb 20 74 3b 3c ed 2e 05 3e
       -0.010955145 -0.006388292 0.011441261 0.13006182
0001b0 fa 3d 5b be 50 b4 1a be 55 50 1b 3e 82 b7 b6 3d
       -0.21410361 -0.15107846 0.15167363 0.0892172
0001c0 ea 27 9e bd 92 7b 30 be 25 f9 38 be 84 79 36 be
       -0.07722457 -0.17234638 -0.18063791 -0.17819792
0001d0 49 f2 2a 3d 72 0d e4 bb 07 f7 0e be 85 d9 7e bc
       0.041734967 -0.0069596106 -0.13961421 -0.01555479
0001e0 b2 42 55 3d 17 f0 4d be 66 33 79 bd 6e 60 40 3b
       0.05206556 -0.20111118 -0.060840033 0.0029354352
0001f0 40 ba 35 bd f5 c7 bd bd d2 c9 4d 3e 79 37 fc bd
       -0.044367075 -0.092666544 0.2009652 -0.12315268
000200 73 e9 5a be a8 c5 a7 3d 36 cb d4 bd 31 ad f5 bc
       -0.21378116 0.08191997 -0.10390322 -0.02998981
000210 14 cd 46 3e 2b ed 47 3e 0d a1 81 bd 5a 48 de bd
       0.19414169 0.19524066 -0.06329546 -0.10853644
000220 32 4d 6b 3d 77 66 03 3e af bf 70 bd 6f 10 ca 3c
       0.057446666 0.12832056 -0.058776554 0.02466604
000230 3f 30 40 be ff 5c ad 3d d7 d1 91 3d fb da 56 3e
       -0.18768404 0.08465003 0.07120102 0.20981972
000240 49 7c 02 bd 8d 74 c1 bd a3 e4 b2 3d bb 3e 08 bd
       -0.03185681 -0.094460584 0.08735015 -0.03326295
000250 ce 1b 9f bd 23 aa 2b be 69 4c 30 be 93 45 c3 3d
       -0.07768975 -0.16764121 -0.17216648 0.095347546
000260 05 c8 16 3e 31 db 0f be 1c 0b 4d 3e a5 d4 2f 3d
       0.14724739 -0.14048459 0.20023769 0.042927403
000270 32 00 1f bc ce 5e 57 bd 23 cb 0f be cf 22 ff 3d
       -0.009704636 -0.052580647 -0.14042334 0.12457811
000280 5c 4b fc 3d 73 4c 15 bd 89 3b 38 3e cd a4 43 be
       0.12319061 -0.03644986 0.17991461 -0.19105835
000290 4d 34 51 3e 29 b5 05 bd 40 f4 1f 3d 8a 11 ee bd
       0.20430107 -0.03264347 0.039051294 -0.11624439
0002a0 8d db 4a be 9e 08 23 3d 9a 76 60 bd af f0 54 3e
       -0.19810314 0.03980314 -0.054800607 0.20794939
0002b0 46 54 b2 3d 98 9c 64 3d 51 00 6d 3b 08 2e fc bd
       0.0870748 0.055813402 0.0036163519 -0.12313467
0002c0 78 8d 1f 3e 5e 73 54 3d fa 56 cb 3d 78 c6 89 3d
       0.1558131 0.051867835 0.09928699 0.06727308
0002d0 80 74 52 3e 2d f5 0e 3d 99 56 54 3e f8 19 c4 bd
       0.20552254 0.034901787 0.2073616 -0.09575266
0002e0 57 35 9b 3d 2d 82 44 3c 76 39 05 3e 85 d2 eb 3d
       0.07578533 0.011993927 0.13010201 0.11514763
0002f0 d1 c4 e6 3b 13 9f 3e be 6f 8d ba bd 6a 9c 59 be
       0.0070425053 -0.1861537 -0.091090076 -0.21251073
000300 99 d1 d2 bb 7b fd fa 3d 1e 20 41 3d 58 6b f7 bc
       -0.0064336774 0.12255379 0.04714977 -0.030202553
000310 fa 62 27 3e 63 08 5a be d4 f7 60 3e e0 3b 04 be
       0.1634635 -0.21292262 0.21969539 -0.12913465
000320 33 10 be 3c 12 c8 16 3d 5f 7a d2 bd 91 d2 30 3e
       0.023201084 0.036811896 -0.10277247 0.17267825
000330 e9 68 24 be ca 4d 8d 3b c0 d4 1a be 22 ba a5 bd
       -0.16055645 0.0043122517 -0.1512022 -0.08092143
000340 79 ad 96 3d ff a5 bf 3d 3f cc d1 bd e1 3c ce bd
       0.07357306 0.09357833 -0.10244035 -0.100702055
000350 ad d8 56 be c8 22 5c 3e c6 96 97 3d 4c 26 f2 bd
       -0.20981093 0.21497643 0.074018046 -0.11823711
000360 ad 65 a8 3b 9d 3f 23 be 92 32 4a be f1 f8 4c be
       0.005139074 -0.15942235 -0.19745854 -0.20016839
000370 89 54 06 be 4d b9 07 bd 7c 26 87 3d a6 ae b7 bd
       -0.13118185 -0.0331357 0.06599137 -0.089688584
000380 40 29 d5 3d b4 24 d5 bd e9 a2 3d bd 7a 8f 35 3c
       0.104082584 -0.10407391 -0.04629794 0.011081571
000390 db 68 4b 3e cf a7 3e 3e de bd 5b be f3 77 2f 3d
       0.19864218 0.18618701 -0.21459147 0.042839002
0003a0 fa 9c 63 b9 ce fa 64 bd f8 32 48 bd e9 92 33 3d
       -0.00021706885 -0.05590325 -0.048876733 0.043841276
0003b0 d9 65 ec bd a5 bc 34 be 42 f9 71 bd c1 4a 32 3d
       -0.115428634 -0.17650087 -0.0590756 0.043528322
0003c0 d6 a0 17 3e 79 b0 bf 3d ee dd ac 3c d6 35 ff 3d
       0.14807448 0.09359831 0.021101918 0.1246144
0003d0 41 bc 3d 3e 9d 59 5f be 1b d4 a4 3d 46 be bf 3d
       0.18528844 -0.21811529 0.080482684 0.09362464
0003e0 63 f4 2f 3e 75 ee 1e be 44 1e 28 3e a6 09 51 3e
       0.1718307 -0.15520652 0.16417795 0.20413837
0003f0 c1 5f 2f 3e cb 6c cf bd 66 71 01 bd 7e 84 24 3d
       0.17126371 -0.101281725 -0.031602286 0.040165417

sentence_encoder.sent_encoder.bias_ih_l0 f4 [60]
000000 44 91 c0 bb 24 ef 0b 3e 9c cd 21 bd e3 c8 79 bd
       -0.005876692 0.13665444 -0.039502725 -0.060982596
000010 7d 0d 27 bd 8b d3 d3 3d 81 41 47 be 37 68 3c be
       -0.040784348 0.10343083 -0.19458582 -0.1839913
000020 3f 54 c3 38 94 2c 2d 3e 6c 4d 01 be db 7f 4b bc
       9.314017e-05 0.16911536 -0.1262719 -0.01242062
000030 d8 6d 39 bd 68 36 0c be b4 7a 16 be 39 77 09 3e
       -0.04527077 -0.1369263 -0.14695245 0.13424386
000040 3b b1 c5 3d 68 55 6c 3d ff 48 62 bd 90 ff d7 b9
       0.09652945 0.057698637 -0.055245396 -0.00041198405
000050 86 48 59 3d e0 1f 11 3e 64 57 03 bd 2d 9d 80 3d
       0.05304768 0.14172316 -0.032065764 0.06279979
000060 dd de 89 3d 1d e3 40 be e8 49 74 bd 88 ef 1c be
       0.06731961 -0.18836637 -0.059640795 -0.15325749
000070 64 56 e2 3c 91 98 5d 3e 28 58 02 be 96 f5 02 3e
       0.027629085 0.2164023 -0.12728941 0.12788996
000080 7f ac 11 bd 1f 00 13 be d0 47 13 3e 8c a6 22 be
       -0.035564896 -0.14355515 0.14382863 -0.15883845
000090 78 42 0f be 87 de 05 3e 15 90 60 3e 16 43 5d be
       -0.139902 0.13073169 0.21929963 -0.21607623
0000a0 42 2e 43 bb 4c 7e 4c be 08 4c 15 3e 99 46 40 3e
       -0.002978221 -0.19970053 0.14579785 0.18776931
0000b0 62 d3 1b be 85 fe 01 3e fc a1 95 bd f4 09 46 3e
       -0.15217355 0.12694748 -0.07306287 0.19339734
0000c0 82 21 18 3d e9 53 14 bc 01 3b 4d be 0d d9 28 be
       0.03714133 -0.009053209 -0.2004204 -0.16489048
0000d0 94 f7 0d bd 19 e3 0b 3c b8 48 a4 bd 12 b5 4a bd
       -0.034659937 0.008538031 -0.080216825 -0.04948909
0000e0 31 82 61 3c 0f 02 40 be b2 fb 4b 3e 5b 1b bf bc
       0.01376395 -0.18750785 0.19920233 -0.023328474

sentence_encoder.sent_encoder.bias_hh_l0 f4 [60]
000000 46 45 28 3e 08 4b 3f be f0 66 50 be d8 2b 9d 3c
       0.16432676 -0.18680966 -0.20351768 0.019185945
000010 c4 c0 15 3e 27 9f 2a 3d ce 8a ac 3d 7d b1 6c bc
       0.14624316 0.041655686 0.084249124 -0.014446613
000020 8f b1 60 3e fd 0d d4 3d e3 d2 f4 bd b3 ba b6 bd
       0.21942733 0.103542306 -0.11954286 -0.08922329
000030 93 af 89 bd 26 7d b3 bd 21 f1 5d 3e 0b 5c 3f 3e
       -0.06722941 -0.087641045 0.21674015 0.18687455
000040 d6 e1 47 be 58 f0 8e 3d a3 41 d0 bd dd 29 0b 3e
       -0.19519743 0.06979436 -0.10168769 0.13590188
000050 db 2b b4 bd f0 a0 f3 3c 2e 38 af bd 45 a5 c1 bd
       -0.08797427 0.029739827 -0.08555637 -0.09455351
000060 08 a6 47 bd 29 63 e5 bd 99 43 63 be 39 e7 fa bd
       -0.048742324 -0.11200554 -0.22193755 -0.122511335
000070 7a 66 08 3e c5 0f 24 3e 73 5e 76 bd a1 a8 f0 3d
       0.13320342 0.1602164 -0.060148668 0.117509134
000080 18 2d 5b 3e a2 1d 63 3e 1c b6 f3 ba 4d 93 1a bd
       0.2140392 0.22179273 -0.0018593702 -0.037738133
000090 49 97 38 be 2f fd 0c be b1 44 5c 3e 1e 47 38 3d
       -0.1802646 -0.13768457 0.21510579 0.044989698
0000a0 46 51 35 be 6c 19 47 be 30 c6 0e 3e 59 9b d8 3d
       -0.17706785 -0.19443291 0.1394279 0.10576505
0000b0 c7 22 1e 3e 5a e3 3e bd b9 39 46 3e 4c b5 ee 3c
       0.15442954 -0.046603538 0.19357957 0.029139183
0000c0 55 04 23 be 00 16 1c 3e 0e 64 37 3e 4b 12 fd 3d
       -0.15919621 0.15242767 0.17909262 0.12357005
0000d0 d6 b6 54 3e 8e e7 2a bd 98 b8 4a be 26 9a be bd
       0.20772871 -0.041724734 -0.1979698 -0.09306745
0000e0 c3 90 c8 bd 0a 9f 90 3a 7b 6b 49 be 4d 21 f2 3d
       -0.09793236 0.0011033725 -0.19669907 0.11822758

sentence_encoder.sent_encoder.weight_ih_l0_reverse f4 [60, 300]
000000 15 62 5b 3d b9 78 2a 3d 1f b1 24 be df 45 81 3d
       0.053560335 0.041619036 -0.16083191 0.06312155
000010 59 5d 81 bd 80 ed b3 3d f9 6f 7b 3d 65 69 a0 bb
       -0.06316633 0.08785534 0.061386082 -0.0048953765
000020 40 48 be bd 9b 8d 96 bd 8d 88 5f be e9 3c 6a 3d
       -0.09291124 -0.07351228 -0.21829434 0.057186995
000030 33 b0 3f be 60 5e 51 3c 42 eb 0d bd 47 11 21 3d
       -0.18719558 0.012778848 -0.034648187 0.039323118
000040 7d b9 3a 3e 50 8a d1 3d 01 38 4b 3d 51 5a 5a be
       0.1823482 0.10231459 0.049613956 -0.21323515
000050 59 26 0c be 9c b7 52 3e 88 7f 11 be 68 a1 65 be
       -0.13686503 0.20577854 -0.14208806 -0.22424853
000060 67 8a ea bb 43 9b 06 bc bf d1 4e 3e 1d 7f 2d be
       -0.007157612 -0.008215728 0.201972 -0.16943021
000070 c3 3a 3c 3e fd 56 dd 3c 92 14 60 be c9 2d ee 3c
       0.18381791 0.027019018 -0.21882847 0.029074566
000080 00 4c 71 bd e0 7f 4d bd 85 b3 8d bd dc 21 37 3d
       -0.05891037 -0.05017078 -0.06919006 0.044710025
000090 5f d2 4d 3e 8e fe 60 3d a9 e1 00 3e 1a 88 cc 3d
       0.20099781 0.054930262 0.12586083 0.09986897
0000a0 c9 25 48 3e 43 25 0a bd f6 fc e5 bc 49 51 47 3e
       0.19545664 -0.03372694 -0.028074723 0.19464602
0000b0 d8 1e ec 3d 75 ca 0f 3e fc 0e f3 bd cc 54 15 3d
       0.115293205 0.14042075 -0.118680924 0.03645782
0000c0 58 c0 22 3e c9 30 39 bd 85 56 b6 3d 45 de 1e 3e
       0.15893686 -0.04521254 0.08903221 0.15514477
0000d0 8c a1 0b be ae 95 5b bd 46 49 f9 3d 33 f3 35 3e
       -0.13635844 -0.053609543 0.12172179 0.17768554
0000e0 c9 14 8b bb 53 be 21 3e f6 36 1a 3e ed ff e5 3c
       -0.004244421 0.15795259 0.15060028 0.028076136
0000f0 6a d8 58 3e 81 d7 33 3e c9 d4 c1 3d 11 76 c6 bc
       0.21176305 0.17562677 0.09464414 -0.02422622
000100 ce 8b 0e 3d ea 5d 2f 3e 72 90 58 be 83 e9 b0 bc
       0.034801297 0.17125669 -0.21148852 -0.021595722
000110 cf 51 6e bd a5 33 87 3d 33 17 62 be e5 0d 35 3e
       -0.058183488 0.06601647 -0.22079162 0.17681082
000120 7e d5 f2 bd aa fd 0a be e6 fb 7b 3d ce 5b 8d bc
       -0.11857127 -0.13573328 0.061519526 -0.01725569
000130 2e b3 35 3e 68 d0 db bc 43 90 43 be c3 00 b4 3d
       0.17744133 -0.026832774 -0.19098 0.08789208
000140 96 7f 5a bd 69 06 0c 3e e0 7a cd bd 01 29 bc bd
       -0.05334433 0.1367432 -0.10033202 -0.091875084
000150 59 f6 6c 3d a6 fe 9a bd 96 35 04 3e e8 2d e6 bd
       0.057852123 -0.075681016 0.12911066 -0.11239225
000160 a4 c0 5f 3e ae 8e 51 bc 2f 7f 1c be b8 42 cc bd
       0.2185083 -0.012790365 -0.15282892 -0.09973663
000170 b7 f2 51 be fa bb 49 3e c5 0d 05 3e f8 ec 19 3e
       -0.20502745 0.19700614 0.12993534 0.15031803
000180 76 48 08 3e 43 73 97 3d f5 69 37 3b 68 10 9b 3d
       0.13308892 0.07395031 0.002798674 0.075714886
000190 5d 1c 23 3e 6f 78 3f 3e 93 20 22 3e 8a cf ad bc
       0.15928788 0.18698286 0.15832739 -0.021217126
0001a0 42 61 63 3e b2 e5 a2 3d 98 6d e6 3c 88 40 d7 3d
       0.2220507 0.07953967 0.02812843 0.10510355
0001b0 b3 14 63 3e 2a 1a 10 be 4b 99 a3 3d 70 27 63 be
       0.22175865 -0.14072481 0.07988223 -0.22183013
0001c0 10 e9 d4 3d 20 50 11 be d6 56 ec bd 80 32 96 3d
       0.10396016 -0.14190722 -0.1154 0.07333851
0001d0 fd 00 25 3e c4 a1 41 3e 1d 82 ed 3d 7e e0 8e bc
       0.16113658 0.18909365 0.11597083 -0.01744103
0001e0 14 40 32 3e 04 64 f7 3d 6e 98 c0 bc fc 66 0e 3d
       0.17407256 0.12079623 -0.023510184 0.034766182
0001f0 46 cc cf bd fa 2f 30 be eb 11 89 bd f7 b4 51 bd
       -0.10146384 -0.17205802 -0.06692871 -0.051197972
000200 e2 ff 7e 3d 25 a3 62 3e c6 dd 91 3c e8 43 a3 bd
       0.062255748 0.22132547 0.017805945 -0.079719365
000210 ec 36 20 be b1 cf e5 3d 07 f0 48 bd 46 73 2a be
       -0.15645951 0.112212546 -0.049057033 -0.16645536
000220 6c 90 fb 3d 57 36 a2 bd c0 5a 59 3e 89 f3 97 3d
       0.12283406 -0.07920521 0.21226025 0.074194975
000230 43 10 17 3e fe 1c 35 3d 7e d1 1a be ed 97 24 3e
       0.14752297 0.044217102 -0.15118977 0.1607358
000240 3f 64 01 be b0 ef 18 be 89 ed d9 bd c5 3d 01 3e
       -0.12635897 -0.14935184 -0.10641009 0.1262122
000250 16 0c 5e be 88 dd 54 bd 25 5f 54 3d fe d8 21 3c
       -0.21684298 -0.05196908 0.05184855 0.009878395
000260 dc 01 94 bc f6 1d 37 be be 93 f6 3d 6e 50 64 3d
       -0.018067293 -0.17882523 0.12039898 0.055740766
000270 09 3c 44 3e 1f e9 d2 3c 96 03 0f bc b7 d5 a0 bd
       0.19163527 0.025745926 -0.008728882 -0.07853263
000280 59 22 25 be 62 f6 b7 3b 96 cd d3 3d 4c d6 e6 3d
       -0.16126384 0.005614088 0.10341947 0.11271343
000290 2c d0 0e be 3c 83 3f bd 65 26 2b be 11 39 44 bd
       -0.13946599 -0.046756014 -0.16713865 -0.047905985
0002a0 0f b6 22 be 22 72 de bc 00 d5 2c 3e bd de 61 3e
       -0.15889762 -0.027154032 0.16878128 0.22057624
0002b0 c1 8a 0f 3d cd 4d 3d be 88 58 47 3e 21 e1 21 be
       0.035044435 -0.1848671 0.19467366 -0.15808536
0002c0 d0 d6 0c be 74 44 4f bc 7d 7c 12 3d ec 38 fd bd
       -0.1375382 -0.012650598 0.035763253 -0.123643726
0002d0 7c f9 1a 3e da 00 6c bd 69 77 48 bd 0a ba 5d bd
       0.15134233 -0.057618 -0.048942003 -0.0541325
0002e0 5c a9 ed bc dd f6 59 bc 47 2e 03 3e 38 db 37 3e
       -0.02901142 -0.013303486 0.12810622 0.17954719
0002f0 c9 82 37 be 44 a9 d3 3c a1 61 0b 3e 6b 59 f0 bd
       -0.17920984 0.025837548 0.13611461 -0.11735805
000300 d4 08 12 be 7b fb 47 bd 80 cc 27 3c b4 7b ba 3d
       -0.1426118 -0.048823815 0.010241628 0.09105626
000310 9b 4f af 3d 0f 53 f4 bc 31 8a 5c bd 6e 18 00 be
       0.085601054 -0.029824762 -0.053842727 -0.12509319
000320 5d 72 93 3d 7c 3d 0a 3e fe 81 e3 bd f0 10 6a bc
       0.071995474 0.13500017 -0.111087784 -0.014286265
000330 af 50 06 3e 95 93 fa 3c 92 73 1a bd ca e0 d7 bd
       0.13116716 0.03058795 -0.037707873 -0.10540922
000340 13 29 0c 3e c4 6d 16 3e d9 14 44 3d e7 11 d9 3d
       0.13687544 0.1469031 0.047871444 0.10599118
000350 c6 c1 b0 3d 95 e8 1e be ff 46 21 be f1 c1 5a 3d
       0.08630709 -0.1551841 -0.15749739 0.053407613
000360 0c e2 4d bd 8d 30 47 be 8f 64 86 3d 58 a3 bf bd
       -0.050264403 -0.19452114 0.06562149 -0.09357327
000370 9d ea 4b be 8a 6e 4e 3e 2c 28 37 bc b6 3a 75 bd
       -0.19913717 0.20159355 -0.011179011 -0.059870444
000380 da 17 3b be de 90 4a 3e 47 18 e4 bc 1e 7c aa 3d
       -0.18270817 0.19781825 -0.027843608 0.08324455
000390 cb 3a 31 3e 53 1b 80 3d e6 f8 52 3e 76 cb 37 3b
       0.17307584 0.06255212 0.2060276 0.0028044856
0003a0 27 e0 82 bb 04 7a 7f 3d 8d 79 40 3d 90 cd c0 3d
       -0.003994006 0.062372223 0.04699092 0.09414208
0003b0 1d 7f 62 3e 0f 33 2b 3e 55 72 2a 3e 1f 12 51 3e
       0.22118802 0.16718696 0.16645177 0.20417069
0003c0 82 04 2e be c9 58 d5 bd 3d ca c9 bd 74 6e 56 be
       -0.16993907 -0.10417325 -0.09853027 -0.20940572
0003d0 0c d0 06 bd c9 11 44 3d 5d 9d 94 3d fe 39 14 be
       -0.032913253 0.047868524 0.07256577 -0.14475247
0003e0 be 9a 34 be a4 d8 28 3e 1f 53 4a bb 58 8a e8 bd
       -0.17637154 0.16488892 -0.0030872298 -0.11354512
0003f0 07 8d 07 be c3 24 21 3e 08 35 b4 3d 3e 94 03 3e
       -0.13237391 0.1573668 0.087991774 0.12849519

sentence_encoder.sent_encoder.weight_hh_l0_reverse f4 [60, 20]
000000 91 fd 0c 3d 9b 23 33 3b 1c b3 f4 3c 6b 2d 0d bd
       0.034421507 0.0027334455 0.029870562 -0.034467142
000010 74 de b3 bd ab 80 d5 3d 97 17 09 3e fb 77 ff b9
       -0.08782664 0.10424932 0.13387905 -0.00048726783
000020 a1 89 06 3d 22 df 11 3c bb 50 5b 3e 3a 7b 62 be
       0.032846097 0.008903297 0.21417515 -0.2211732
000030 16 70 91 bd 3d 75 51 be 40 9a 50 3e 9e 7f 5a be
       -0.07101457 -0.20454879 0.20371342 -0.21337745
000040 e9 b9 f5 3b 07 d6 44 3e b8 f2 0d 3e 14 99 96 3b
       0.007498969 0.1922227 0.13862121 0.004595885
000050 4f aa 86 3d af 62 f6 3d 8c 0c c3 bd 51 07 49 be
       0.065754525 0.12030541 -0.095238775 -0.19631697
000060 74 98 87 3d b7 cf 2a 3e 29 ee 78 3d 71 3f 2f 3e
       0.06620875 0.166808 0.060774002 0.17114045
000070 08 10 12 be bb 33 2f bc bb ff 2d bd 41 46 46 3d
       -0.14263928 -0.010693486 -0.04248021 0.048406843
000080 e1 bd 90 b9 c6 8a 0b bc 76 c6 11 3e fd 8d 59 be
       -0.0002760729 -0.008516973 0.14235863 -0.2124557
000090 71 04 4a be e7 54 2d 3e bc 61 a2 bd 74 b4 ce bd
       -0.19728257 0.16926919 -0.079287976 -0.100930125
0000a0 88 8d 13 be ca 09 21 3d d3 e5 55 3a cc 98 8c 3d
       -0.14409459 0.039315976 0.00081595517 0.06865081
0000b0 37 2a d2 bc 37 bb f7 b9 75 76 49 be d1 e5 b6 bd
       -0.025654895 -0.00047250997 -0.19674094 -0.08930553
0000c0 da b6 a3 bd f6 b9 4b 3e 12 15 6d 3d a6 e1 1e be
       -0.079938605 0.19895157 0.057881422 -0.15515766
0000d0 e3 ac 3e 3d 56 b4 50 3e 31 63 e8 3c ac a4 36 be
       0.046551596 0.20381293 0.02836761 -0.17836255
0000e0 8d 8e 05 3e a4 9e 35 be 38 00 4f bd 44 0b 0e be
       0.1304266 -0.17736298 -0.050537318 -0.13871485
0000f0 e3 98 43 be 1d 9e 34 be d1 f9 79 3d 56 4b 5b 3e
       -0.1910129 -0.1763844 0.06102926 0.21415457
000100 51 1d 87 bd 7b 40 63 bd 70 8f 57 3e 20 ba 12 3d
       -0.065973885 -0.055481415 0.21050811 0.035822034
000110 f5 6d 1c be e7 c9 34 be 4f 09 01 be c1 95 68 bd
       -0.1527632 -0.17655145 -0.12601207 -0.05678344
000120 dc f9 fc bd d7 f9 dd bd 74 9c a7 3d 0a 33 00 be
       -0.123523444 -0.10838669 0.08184138 -0.1251947
000130 82 96 25 be d6 55 1f bc 90 23 11 be 74 ff 5f 3e
       -0.16170695 -0.009725055 -0.14173722 0.21874791
000140 3c b9 0c bd 72 2c 11 3e 5a 3e 01 3e a2 9d 25 be
       -0.03435634 0.14177111 0.12621441 -0.16173413
000150 91 d1 43 be 86 b5 71 bd 92 bb 14 bd 7b d1 33 3e
       -0.19122912 -0.059011005 -0.036311693 0.17560379
000160 35 9b 35 3e f4 be 21 bc 03 08 fc bd 9f 33 e6 3c
       0.17734988 -0.009872187 -0.123062156 0.028100787
000170 25 68 2a 3e cf 6c 49 3d 7f 9a 3f 3e ab 88 42 be
       0.1664129 0.049176034 0.1871128 -0.18997447
000180 80 f1 2e 3e 4a 4d 12 3e 1f bc 57 bd e9 60 ea 3d
       0.17084312 0.14287296 -0.05266964 0.114442654
000190 05 3b 0e be 9d ce e7 bd d0 6e be 3d 2e 87 39 3e
       -0.13889702 -0.11318705 0.092984796 0.18117973
0001a0 1a 6f 05 3c c3 c5 eb 3d 83 73 5b be da 63 41 3e
       0.008144164 0.115123294 -0.21430783 0.18885747
0001b0 93 a4 11 be 90 7d df 3c 87 8e f1 bb 4d 00 f8 3d
       -0.14222936 0.027281553 -0.007371727 0.12109432
0001c0 94 9a 58 3e 38 5d d2 3c 94 a5 bf 3d 27 75 f3 3d
       0.21152717 0.025679216 0.093577534 0.118875794
0001d0 e2 5c 68 bd a3 25 5e 3d b6 54 8a bd 45 20 da bd
       -0.056729205 0.054235112 -0.067544386 -0.10650686
0001e0 eb 61 3e be f4 74 86 3c 15 65 c8 3d 9c d4 c4 bd
       -0.1859204 0.01641319 0.09784905 -0.096108645
0001f0 e2 e3 21 bd 33 e7 d2 3d 69 ec 0c bc e8 37 9e ba
       -0.039523967 0.10298004 -0.008601286 -0.0012071105
000200 56 65 91 3d 94 22 e8 3c 1c 65 46 3d 6f d1 a8 bd
       0.070994064 0.0283368 0.04843627 -0.08243071
000210 91 33 20 be 65 b8 c6 3d 63 28 a3 bd f1 00 a8 bc
       -0.15644671 0.09703139 -0.079666875 -0.020508261
000220 23 ce 19 3e 2e c0 17 be 46 08 d1 bd 9e 69 19 be
       0.15020041 -0.14819404 -0.10206656 -0.14981696
000230 ff 7f 46 bd dc 6d 43 be ba 53 f3 bd 53 6f c9 3d
       -0.04846191 -0.19084877 -0.11881204 0.098356865
000240 88 7f 26 bd d6 34 03 3e f5 78 6e bd b5 33 09 3e
       -0.040648967 0.12813124 -0.058220822 0.13398631
000250 b5 4c d4 bd 78 96 28 3e 58 48 f2 3d 9c 66 f0 3d
       -0.10366193 0.1646365 0.11830205 0.11738321
000260 20 fe f2 bd 70 b0 c3 bd 4e 41 14 bc 18 1e 0d 3e
       -0.11864877 -0.09555137 -0.009048773 0.13781011
000270 0f d7 4e 3e 64 a7 24 be e9 f9 57 3e 23 bb e3 bd
       0.20199226 -0.1607948 0.21091427 -0.11119678
000280 70 6d b8 3d 68 2b f0 bd 89 5b 23 be 01 dc 3a bd
       0.090052485 -0.11727029 -0.15952887 -0.04561997
000290 a9 50 d9 bd b2 0e 16 3e ec e4 4c be eb 4a 18 bd
       -0.10611088 0.14654043 -0.20009202 -0.037180822
0002a0 a5 52 15 bd d0 02 49 3e 8d 35 3a 3e 19 1f 23 be
       -0.03645577 0.19629979 0.1818449 -0.15929832
0002b0 04 8e 03 be 10 26 a1 bd 79 43 32 be 48 e1 17 bd
       -0.12847143 -0.07868588 -0.17408551 -0.03708008
0002c0 32 a5 64 3e 1b 52 06 3e 1f 27 f0 bc 8e 9e 3b be
       0.22328642 0.13117258 -0.02931553 -0.18322203
0002d0 a5 45 af bc 8f 7d 75 3d f6 b8 65 bd 0c b9 03 3e
       -0.021395514 0.059934195 -0.056084596 0.12863559
0002e0 0c 18 41 3e 97 15 42 3e e4 c4 5d be 41 1e 27 be
       0.1885683 0.18953548 -0.21657139 -0.16320135
0002f0 64 0b fc bb 86 b7 c1 3d 76 a0 1d 3d 0c a6 63 be
       -0.0076917876 0.094588324 0.038483106 -0.2223131
000300 54 01 5d 3e 3c 74 36 be a7 06 5a 3e 3e 8d 22 be
       0.21582538 -0.17817777 0.212916 -0.15874192
000310 8f a2 2e 3c 08 5c d4 3d ca bc c6 bd cc 0f 64 3d
       0.010658874 0.10369116 -0.097039774 0.055679128
000320 c0 0b 26 bd 94 1a 3f be 30 ef 33 be c1 65 f1 bc
       -0.04053855 -0.18662483 -0.17571712 -0.029467465
000330 77 40 26 be 7d 16 cb bd 54 f1 54 3e bb 10 06 3c
       -0.16235529 -0.09916399 0.20795184 0.0081827
000340 d7 16 af 3c ad ac 3c 3e 0c cd 05 bd 7b cd 56 be
       0.021373196 0.18425246 -0.03266625 -0.20976822
000350 d9 11 60 3e 8d 4b 1c be bb 6d dc bc b4 d6 e0 3d
       0.21881808 -0.15263195 -0.026907792 0.10978451
000360 ca ea 63 3d 75 f0 10 3c af bf 07 3e b8 52 37 3d
       0.055643834 0.008846392 0.13256715 0.04475662
000370 d2 57 20 be 50 88 a1 3d 0c 57 35 3d e2 f8 2a 3e
       -0.15658501 0.07887328 0.044272467 0.16696504
000380 8a 94 eb bd 23 ce d1 3c 72 94 19 be 85 b7 29 3d
       -0.11502941 0.025610989 -0.14998034 0.041434783
000390 d2 ac c0 bd f1 b9 07 3d f6 e1 eb bd 8e 4e 17 3d
       -0.09407963 0.033136312 -0.11517708 0.03694015
0003a0 92 c0 be 3d c7 c6 49 bd 9a 6b 4b 3e 00 1d 4c 3e
       0.093140736 -0.049261834 0.19865265 0.19932938
0003b0 7c 56 59 3c 96 ee 71 3b 11 89 4d bd 6e 78 2c 3e
       0.013265248 0.003691589 -0.050179545 0.16842815
0003c0 d3 ad 20 be e3 9a 22 bd 0b e1 0f be f7 f8 2a 3e
       -0.15691309 -0.039698493 -0.14050691 0.16696535
0003d0 72 89 e6 3d e1 ae 3a be c3 f0 8d 3a 7f ad 4c 3e
       0.11256684 -0.18230774 0.0010829199 0.19988059
0003e0 9e c2 cd 3c e0 1a e8 bd 3c b2 63 be 8c 74 29 3d
       0.025117215 -0.11333251 -0.2223596 0.041370913
0003f0 de b0 9e 3d b3 ba 06 bd 1c ec 53 be e1 36 b2 3d
       0.077485785 -0.032892894 -0.20695537 0.087018736

sentence_encoder.sent_encoder.bias_ih_l0_reverse f4 [60]
000000 c1 27 5d be d8 6c 4f 3e 52 29 76 bd 91 f4 5f 3e
       -0.21597196 0.20256364 -0.060098 0.21870638
000010 4b dd b2 3b 00 df 5e 3e 57 b4 2a be 42 6b 83 bd
       0.005458509 0.21764755 -0.16670357 -0.06416942
000020 bd 48 2d 3d aa 15 b4 bd 97 98 ff 3b 83 96 03 be
       0.042305697 -0.087931946 0.0078001725 -0.12850384
000030 d2 f9 10 be 25 5b 8c 3d 9d cf 95 3d e8 46 a2 3d
       -0.14157799 0.06853322 0.0731499 0.079236805
000040 11 aa 13 3e 25 05 ae 3d d4 11 2c be 28 85 03 3e
       0.14420344 0.08497075 -0.16803676 0.12843764
000050 c0 fa bf 3d 3d cf 86 3d dd e2 17 be 52 8c 7f bc
       0.09373999 0.06582496 -0.14832635 -0.01559742
000060 bc 6a e3 3c ed 13 9c 3d 5b 6b a8 bd ef a7 71 3d
       0.027760856 0.07620988 -0.082236014 0.058998045
000070 73 52 c6 bd 2e af c9 3c 42 c4 07 bc c8 65 da 3d
       -0.09683695 0.024619665 -0.008286538 0.106639445
000080 51 74 29 be 01 27 58 3e a3 eb 35 be 19 4e 93 3d
       -0.16548277 0.21108629 -0.1776567 0.0719263
000090 08 f6 63 bd 9b 67 fd 3d 70 22 31 3d 34 c5 16 3e
       -0.055654556 0.12373277 0.043245733 0.14723665
0000a0 6b 82 11 be 3e a9 c7 3d 01 e7 5a bd ce 7c 1a 3e
       -0.14209907 0.09749077 -0.05344296 0.15086672
0000b0 4d 91 95 bd d8 51 6f 3c 0a e1 58 3d 54 c7 4e 3e
       -0.073031045 0.014606915 0.05294899 0.20193225
0000c0 94 ad bb 3c f5 5d e7 3c 31 98 85 3d 85 09 60 bd
       0.022909917 0.028243044 0.06523169 -0.05469658
0000d0 07 bf fe bd 89 78 ce bd af 01 1c be 3f 03 38 3e
       -0.12438779 -0.10081584 -0.15235017 0.17969988
0000e0 c1 6f 20 bd c5 98 61 3e 49 9c e6 3b 59 8b bd 3d
       -0.039169077 0.22030933 0.0070376736 0.09255094

sentence_encoder.sent_encoder.bias_hh_l0_reverse f4 [60]
000000 37 5e da bd 20 eb 09 3e 6e c9 0c 3e 53 33 5a 3e
       -0.10662501 0.134686 0.13748714 0.21308641
000010 b0 b2 2f 3c f8 38 b3 bd 06 3e d6 3c a0 ed 18 3d
       0.010723755 -0.087511 0.026152622 0.03733599
000020 fa 48 14 be fc 2a 18 bd 2c fc 89 3d a1 19 6c bd
       -0.14480963 -0.037150368 0.06737551 -0.05764163
000030 5d 32 58 3e 85 24 2b be 6a 87 35 3e 80 c5 f1 bd
       0.21112962 -0.1671315 0.17727438 -0.11805248
000040 6e 17 3d be 31 92 0a 3e 12 65 9e bd a4 42 a1 3d
       -0.18465969 0.1353233 -0.077341214 0.07874039
000050 5e 07 95 bd 74 ad 0d 3d 57 4f 4e be 58 3f 37 be
       -0.07276796 0.034589246 -0.20147453 -0.17895257
000060 8a 81 36 be 45 64 1a be 19 93 bd 3d cf bd 57 be
       -0.17822853 -0.15077312 0.09256572 -0.210685
000070 22 e6 12 3e 79 24 52 3e c0 fe 53 3e 96 58 d1 3c
       0.14345601 0.20521726 0.20702648 0.025554936
000080 a4 3d 35 3e 56 2c 68 bd 39 fe af 3d f1 69 00 bc
       0.17699295 -0.056682907 0.08593411 -0.007837758
000090 af fa a7 bd c3 ad a9 bd e5 0f 48 be e5 83 3a be
       -0.08202111 -0.082850955 -0.19537313 -0.18214376
0000a0 4e 6a 92 3d 51 55 f6 bc 86 3a 2d be e5 8d a8 3d
       0.07149182 -0.030069979 -0.16916856 0.08230189
0000b0 2d 6d fa 3d 11 d1 0d be a8 e8 64 3d 49 8a a0 bb
       0.12227855 -0.13849284 0.05588594 -0.0048992974
0000c0 7f 3e 2d 3e b2 ca 11 be b7 5e ba 3c d3 f0 e4 bd
       0.16918372 -0.14237478 0.022750242 -0.11178746
0000d0 27 5b 0c 3e 37 d1 dd 3d 72 f7 2f 3c 2b a6 32 be
       0.13706647 0.1083092 0.010740148 -0.174462
0000e0 81 31 4e 3e 1b 83 19 bd ee 9c d0 bd 45 13 2d 3e
       0.20136072 -0.037478548 -0.10186182 0.16901882

document_encoder.doc_encoder.weight_ih_l0 f4 [120, 40]
000000 af ab 01 3e d4 06 0a 3c be 8f 88 bd 3c 52 86 3d
       0.12663148 0.0084244795 -0.06668042 0.06558654
000010 03 5b 58 bd 64 44 d4 3d 7c 0d a7 3d 7a e6 53 3d
       -0.05282117 0.10364607 0.08156869 0.05173347
000020 17 f6 c4 bd c6 dd 9c bd d9 41 1c be f3 e7 4a 3d
       -0.096172504 -0.076594874 -0.15259494 0.04953761
000030 ba 0a 12 be 4d 50 db bd c2 db a0 3d 3e f6 4a bd
       -0.14261904 -0.107086755 0.078544155 -0.04955124
000040 76 7b 03 be f6 9e 2b 3d 50 8b 51 3d 1d 2d f5 3c
       -0.12840065 0.041899644 0.05115825 0.029928738
000050 2c aa bb 3d 39 73 04 3e ba 28 02 3e 3b e8 d8 3d
       0.09163317 0.12934579 0.12710848 0.105911694
000060 22 1e e6 bd b3 3f 25 3d 21 08 f8 3d 51 f1 b8 bd
       -0.11236216 0.04034395 0.121109255 -0.090304025
000070 65 c6 d0 3d 20 40 c5 3d 74 e2 97 3d 7e 6b 9a 3d
       0.10194091 0.096313715 0.074162394 0.07540034
000080 1c 6e 9c 3d f9 63 16 3d 98 9e 07 be 7d 9a 2e 3d
       0.07638189 0.036716435 -0.13244092 0.0426278
000090 79 32 9a 3d 8c a7 53 3c e1 d9 16 3e be 6f 91 3d
       0.07529158 0.012918364 0.14731552 0.07101391
0000a0 d6 85 86 3b 5e 65 ef 3d 35 d7 f1 3d cc 3e da bd
       0.00410531 0.11689256 0.118086256 -0.10656509
0000b0 18 c1 ca 3d ae 52 09 be af 4a 2a 3d 6e ae d9 bd
       0.09900111 -0.13410446 0.04157513 -0.10628973
0000c0 29 f6 20 be 22 4a dc 3d 49 d4 06 be 76 f9 f1 bd
       -0.15718903 0.10756327 -0.13166918 -0.11815159
0000d0 b0 b5 cb bd b4 b8 c2 3d 90 f6 1a 3c 53 66 b8 bd
       -0.099467635 0.095078856 0.009458199 -0.09003892
0000e0 68 c4 db bd 4d f0 cd bc 6f 45 a5 bd c9 88 be 3d
       -0.10730821 -0.025138998 -0.08069884 0.093034334
0000f0 84 e6 c0 bd 3d d8 ca bd ef 79 47 bd 7c 65 e8 3d
       -0.09418967 -0.099045254 -0.04870027 0.113474816
000100 28 bf 14 3e 1e a2 de 3d 44 89 07 3e 06 91 c0 bd
       0.14526045 0.10870765 0.13235956 -0.09402661
000110 bd 5e 98 3d 0d bb c9 3d 3f ff 96 3d 55 4a 30 3d
       0.07439945 0.0985013 0.07372903 0.04303964
000120 c8 a7 ac 3d 01 38 af bd 8f e1 53 3c a2 89 6b bd
       0.08430439 -0.08555604 0.012932195 -0.057504304
000130 95 2d 19 3d b6 31 d6 3d fa a3 ad bc 75 66 b7 bc
       0.037396986 0.104587 -0.021196354 -0.022387723
000140 c0 09 15 be 0d dc 1e be 80 50 1c be a0 a2 4e bd
       -0.145545 -0.1551363 -0.15265083 -0.05044806
000150 f1 07 13 be 0f f6 25 3d 84 a3 c4 3d d3 eb 86 3d
       -0.14358498 0.040517863 0.09601501 0.06587949
000160 5c a6 d0 bc 1f c9 93 bd 83 8d a3 bd 05 f1 97 bc
       -0.025469951 -0.07216095 -0.079859756 -0.018547544
000170 41 72 c1 3d a4 cb 07 3e 5b 11 d3 bd ef b3 f5 bd
       0.0944562 0.13261276 -0.10306045 -0.1199721
000180 59 ad 79 3d 80 6d cf 3d 02 88 18 be e3 b3 11 3e
       0.060956333 0.10128307 -0.14895633 0.14228778
000190 59 72 94 3d f2 cb da bd 22 94 9b bd ce 84 1f 3e
       0.072483726 -0.10683431 -0.075966135 0.15578005
0001a0 c9 b9 8a bd 18 57 20 be dc cf 4b 3c 2a b6 84 3d
       -0.06773717 -0.15658224 0.012439694 0.064800575
0001b0 1a c3 8d 3c a3 2f e9 bb 7c 5f 0b be fb 2c bd bd
       0.017304946 -0.0071162744 -0.13610643 -0.09237095
0001c0 ca 2f 9c bd eb 0a 76 bd b4 c5 00 3e 17 d4 6f 3c
       -0.076263025 -0.060069006 0.12575418 0.0146379685
0001d0 67 0c d4 bd c6 1c 4b 3d da ea e8 3a 6c 31 1e be
       -0.10353928 0.049587987 0.0017770187 -0.1544854
0001e0 34 a1 f4 bc 87 fd 01 3e f5 3e 0c be 5b 7f ac bc
       -0.029862024 0.1269437 -0.13695891 -0.021056822
0001f0 53 04 1a be 15 0b 54 3d 05 67 1b be a0 4a 16 be
       -0.15040712 0.05176838 -0.15176018 -0.14676905
000200 8d ad 52 bc 43 bf 19 3e 26 74 f7 3c ea d7 6b bd
       -0.012858761 0.15014367 0.030206751 -0.05757896
000210 23 a5 03 3e 27 8c c0 3d 58 8d cb 3d 8a fd 1f be
       0.12855963 0.09401732 0.099390686 -0.15624061
000220 6e d6 8b bd 45 da 10 3e 68 54 93 3d 88 b9 3e 3b
       -0.068280086 0.14145763 0.071938336 0.0029102284
000230 f1 d1 1d 3d a4 8e 47 3d b3 e5 14 3d dc 3c 89 3c
       0.038530294 0.048720017 0.03635187 0.016752653
000240 fd 99 03 3e 0d a2 1c 3e 77 6f 81 3d 28 37 8b 3c
       0.1285171 0.15296192 0.06320088 0.016994074
000250 20 17 43 bc e1 8e bf 3d 03 a3 8a 3d 70 69 ba bd
       -0.011907369 0.09353424 0.06769373 -0.09102142
000260 00 47 e6 bd 65 6e eb bd 41 b6 4e 3b a6 b7 9c 3d
       -0.11244011 -0.114956655 0.0031541737 0.07652216
000270 61 dd e9 bd 85 bf 94 3d 55 0e 0e bd f8 5b 9a bd
       -0.11419178 0.07263092 -0.034681637 -0.07537073
000280 a5 e6 88 bd 57 28 66 bb 9b 47 83 bd be 5d ea bd
       -0.06684617 -0.003511926 -0.06410142 -0.11443661
000290 62 b8 4d 3d 9f 89 4d bd 84 b2 00 be f0 45 13 be
       0.05022467 -0.050180074 -0.12568098 -0.14382148
0002a0 45 2c 14 be 6c 25 b9 3d ab db 7f 3d 7e 0f 19 be
       -0.14470012 0.09040341 0.06246535 -0.14947316
0002b0 c7 c6 d1 3d 25 a9 e4 bd 43 28 44 3d 52 29 bc 3c
       0.10242992 -0.11165074 0.04788996 0.022968922
0002c0 cc b0 0b bd 82 e4 9b bd 5d a9 4b 3c 83 35 12 3e
       -0.034104154 -0.07611944 0.012430516 0.14278226
0002d0 12 1f 96 3d 52 97 47 3d 2c 05 f4 3d e1 9b f1 3c
       0.07330145 0.048728295 0.11915049 0.029493274
0002e0 a5 54 a9 bd f7 e7 09 be 07 dc 4f 3d 9f df a6 3d
       -0.08268098 -0.13467394 0.050746944 0.08148121
0002f0 e4 66 83 bd 4e f1 b1 bd a8 57 f7 bc 15 7a 79 bd
       -0.06416109 -0.08688603 -0.030193165 -0.060907442
000300 f1 65 19 3e c8 d6 99 bd 96 30 ec 3c c4 af a8 3c
       0.14980294 -0.075116694 0.028831761 0.020591624
000310 be 0d 15 3e 97 13 41 bc a0 29 5e bd d7 2e 13 3e
       0.14556023 -0.011784456 -0.054238915 0.14373337
000320 2b 72 9a 3d 15 7a 05 3d a0 05 44 bd e8 f9 05 be
       0.07541307 0.03258713 -0.047856927 -0.13083613
000330 df 8d 1e bd 6d 2b 2d 3b e3 e4 90 bd a2 0f ea bd
       -0.038709518 0.002642359 -0.07074907 -0.11428763
000340 4d 1b 12 3d 1d c9 c4 3c 00 d4 a5 bc a2 12 46 3d
       0.035670567 0.02402168 -0.020242691 0.048357613
000350 34 bd 4e bd 05 9c 9c 3d 32 46 56 b8 25 89 63 3d
       -0.050473407 0.07646946 -5.108695e-05 0.055550713
000360 f1 20 02 bd cc 67 57 bb 08 e3 c5 3d eb 11 19 3d
       -0.031769697 -0.0032868264 0.096624434 0.037370604
000370 09 65 aa 3d a8 a8 5e bb f9 12 e1 bd 84 c6 b0 bb
       0.08320052 -0.0033975039 -0.10989947 -0.0053947587
000380 21 7e 2e bd 25 d3 06 be 5e b9 c5 3d e1 d8 c0 3d
       -0.042600755 -0.13166483 0.096544966 0.09416366
000390 e3 bb 12 be 54 b3 e7 3d e0 d5 86 bd b7 80 94 3d
       -0.14329486 0.11313501 -0.06583762 0.07251113
0003a0 a0 59 e6 3d 50 c3 67 3d 2d a5 16 3c 21 c0 12 be
       0.11247563 0.05658275 0.009194654 -0.14331104
0003b0 a2 81 5d bc c9 4f a8 3d 41 b9 f9 bc 8e df 6f 3d
       -0.013519676 0.08218343 -0.030483844 0.058562808
0003c0 d0 f7 43 bd 9e 66 35 bd 5d 3d 2d bb bd 50 f9 3d
       -0.047843754 -0.044287317 -0.002643428 0.12173603
0003d0 c2 75 4f 3d 67 de 86 bd c8 99 85 3d 3b 82 19 bc
       0.050649412 -0.06585389 0.06523472 -0.009369428
0003e0 2f 6a 02 3d e2 ff f8 bd 8e c9 8c ba 0a 87 1f 3e
       0.031839546 -0.12158181 -0.001074122 0.15578857
0003f0 6e 9a 95 3d dd 8e 25 3d a1 94 83 3d 9d bf 4c ba
       0.07304846 0.04041945 0.06424833 -0.0007810535
