run_scripts/neusum.pth (torch_old, 313196 bytes, 28 tensors)

sentence_encoder.model_embeddings.source.weight f4 [14, 30]
0	0x00000000	0.0
1	0x00000000	0.0
2	0x00000000	0.0
3	0x00000000	0.0
4	0x00000000	0.0
5	0x00000000	0.0
6	0x00000000	0.0
7	0x00000000	0.0
8	0x00000000	0.0
9	0x00000000	0.0
10	0x00000000	0.0
11	0x00000000	0.0
12	0x00000000	0.0
13	0x00000000	0.0
14	0x00000000	0.0
15	0x00000000	0.0
16	0x00000000	0.0
17	0x00000000	0.0
18	0x00000000	0.0
19	0x00000000	0.0
20	0x00000000	0.0
21	0x00000000	0.0
22	0x00000000	0.0
23	0x00000000	0.0
24	0x00000000	0.0
25	0x00000000	0.0
26	0x00000000	0.0
27	0x00000000	0.0
28	0x00000000	0.0
29	0x00000000	0.0
30	0x3f3cf04f	0.7380418
31	0xbf791535	-0.97297984
32	0xbf907289	-1.1284953
33	0xbfa5457a	-1.2911828
34	0x3f335b31	0.7006102
35	0xbf3936b3	-0.7234909
36	0x3f45d66e	0.7728032
37	0xbe9193cb	-0.2843307
38	0xbfa160b2	-1.2607634
39	0xbfb122a9	-1.3838702
40	0xbf258fd9	-0.6467262
41	0x3f750047	0.9570355
42	0x3fa2fcc8	1.2733393
43	0x3fce6be0	1.6126671
44	0x3f92b8a0	1.1462593
45	0xbfd82e87	-1.6889199
46	0xbec50d25	-0.3848659
47	0xbf11e55c	-0.569906
48	0xbef746d0	-0.48296213
49	0xbb7c47eb	-0.0038495015
50	0xbf0b7e50	-0.5448961
51	0x3dc02db8	0.0938372
52	0xbe88d19c	-0.2672242
53	0xbfdc332e	-1.7203119
54	0x3f6a57bd	0.9154013
55	0xbc4ac853	-0.012376863
56	0xbe634e14	-0.22197753
57	0x3cb70646	0.022341859
58	0x3edb2cc7	0.428076
59	0x3eec8861	0.461978
60	0xbfcc5efe	-1.5966489
61	0x3f8267b5	1.0187899
62	0xbe80d667	-0.25163576
63	0x3e38ee95	0.18059762
64	0xbf318e6c	-0.69357944
65	0xbf23da56	-0.6400503
66	0x3f3cd067	0.73755497
67	0x3fa6d879	1.3034812
68	0x3feb677f	1.839096
69	0xbf8521f4	-1.0400987
70	0xbff08d22	-1.879307
71	0x3e146d4c	0.14494818
72	0x3f3fac86	0.74872625
73	0x3e1af635	0.15132983
74	0xbe5d6437	-0.2162026
75	0x3f89aec6	1.0756462
76	0x3fb5f69d	1.4215885
77	0x3bfab8e2	0.0076514343
78	0xbf0a9c3f	-0.5414466
79	0xbfab52a2	-1.3384593
80	0xbf8d85a9	-1.1056415
81	0x3c3ad646	0.011403626
82	0xbe0aef1b	-0.13567774
83	0x3f823a7e	1.01741
84	0x3f28df29	0.65965515
85	0x3edf97d8	0.43670535
86	0x3f4a7488	0.7908406
87	0xbdce0e62	-0.10061337
88	0xbfd572d9	-1.6675674
89	0xbf927ef5	-1.1444994
90	0xbe01d22b	-0.12677829
91	0x3f08aae1	0.5338574
92	0x3fb25ad9	1.3933975
93	0x3f729785	0.9476245
94	0xbfcb37b6	-1.5876377
95	0xbfe9c5ed	-1.8263527
96	0x3f654ad7	0.8956732
97	0x3fbbdef3	1.4677414
98	0x3feddcc7	1.8583001
99	0x3f03c376	0.51470125
100	0xbd22d9fb	-0.039758664
101	0xbeda0656	-0.4258296
102	0xbe2dbb93	-0.16966085
103	0xbfee5d98	-1.8622313
104	0x3ef808b2	0.48444134
105	0xbfeced60	-1.8509941
106	0xbf73faa1	-0.95304304
107	0xbf774b54	-0.96599317
108	0xbf38be7d	-0.7216566
109	0xbeb903b0	-0.36135626
110	0x3f90a363	1.1299862
111	0xbf0d798d	-0.55263597
112	0xc02509df	-2.5787275
113	0x3eb2d8dc	0.34931076
114	0xbfbb891e	-1.465122
115	0xbf8d9632	-1.1061461
116	0x3ec5f476	0.3866307
117	0x3f0ae119	0.5424972
118	0xbea59ab2	-0.32344586
119	0xbf8cebe9	-1.1009494
120	0xbf81f2f0	-1.0152264
121	0x3e3af39b	0.1825699
122	0xbf86ed67	-1.05412
123	0x3e0ddfa3	0.13854842
124	0xbf70be08	-0.94039965
125	0xbe300e52	-0.17192963
126	0xc0047ac7	-2.0699937
127	0x3ee184b7	0.44046566
128	0x3f586f2e	0.84544647
129	0x3e3c9a89	0.18418325
130	0xbf9d39fb	-1.2283319
131	0xbfcdb7d1	-1.6071721
132	0xbde782c0	-0.113042355
133	0x3f1130d9	0.5671516
134	0x3f8ae8f1	1.0852338
135	0xbf1cad8a	-0.612023
136	0xbe4ffeaa	-0.2031199
137	0x3f0aa466	0.541571
138	0x3f24272f	0.6412229
139	0xc010fa7b	-2.265288
140	0x3d6f6bb2	0.058452316
141	0xbda70ade	-0.081563696
142	0x3f21e18b	0.63234776
143	0x3f353f47	0.7079968
144	0xbeccb110	-0.39978838
145	0xbe9937c0	-0.29925346
146	0xbf121c3b	-0.57074326
147	0x3f6a6fb5	0.915767
148	0x3f491025	0.7854026
149	0xbf9ce684	-1.2257848
150	0xbf339d22	-0.7016164
151	0x3e5fc271	0.21851517
152	0xbf7511e6	-0.95730436
153	0xbfad656d	-1.3546578
154	0xc00deae6	-2.217462
155	0x40023314	2.0343676
156	0x3f276c60	0.6539974
157	0x3e342671	0.17592789
158	0xbf2ad921	-0.6673756
159	0xbed8856b	-0.4228929
160	0xbea45622	-0.32096964
161	0x3f705bda	0.93890154
162	0xbeb1280f	-0.34600875
163	0xbf9ca5f8	-1.223815
164	0xbefbfacd	-0.49214783
165	0xbe6b5bcd	-0.22984238
166	0xbfb9bc06	-1.4510505
167	0x3f241dc0	0.64107895
168	0xbf2ba262	-0.6704465
169	0x3f3bf137	0.7341494
170	0x3fa167b2	1.260977
171	0x40500f84	3.250947
172	0x3db278b6	0.0871443
173	0x3dc9ac0f	0.09847271
174	0x3f9e2c39	1.2357246
175	0x3ed57019	0.41687086
176	0x3f1b4d52	0.60664856
177	0xbf621c78	-0.8832469
178	0x3fb61e9b	1.422809
179	0x3eb9502f	0.36193988
180	0x3edf6ee1	0.4363928
181	0xbeddf091	-0.433476
182	0x3c8b8675	0.017031888
183	0xbf3d9e63	-0.74069804
184	0x3fb94e00	1.4476929
185	0xbe72c94c	-0.23709601
186	0x3df9eb76	0.12203114
187	0xbef4021c	-0.4765786
188	0xbdad94b3	-0.08475628
189	0xbf686bee	-0.9078969
190	0x3f9ceaf6	1.2259204
191	0xbf020464	-0.5078795
192	0x3eb566b1	0.3542991
193	0xbefff963	-0.49994954
194	0x3ef14450	0.4712243
195	0x3ffb7230	1.9644222
196	0x3e7a5edf	0.24450253
197	0x3ce854b2	0.028360698
198	0x3fd47ce9	1.660062
199	0x3e468f90	0.19390702
200	0xbf84a60a	-1.0363171
201	0x3fa463ae	1.284292
202	0xbda1c967	-0.078997426
203	0x3f40ed7d	0.7536238
204	0x3f85ba98	1.0447569
205	0x3e13307a	0.14373961
206	0x3e056620	0.13027239
207	0x3ebb49e8	0.36579823
208	0xbec04c46	-0.37558192
209	0x3ecbd2f0	0.3980937
210	0xbf6cb12b	-0.92457837
211	0x3e94b714	0.29045928
212	0x3e94ca2d	0.29060498
213	0x3d9d6d85	0.07686905
214	0x3f196593	0.59920615
215	0x3f6dbbb0	0.92864513
216	0x404fcfb6	3.2470527
217	0xbfd80234	-1.6875672
218	0x3f0cef3d	0.5505255
219	0x3f9e15b3	1.2350372
220	0x3ec3ac9a	0.38217622
221	0x3dd8c003	0.10583498
222	0x3d4d10e9	0.050064955
223	0x3e1246ea	0.14284864
224	0xbe887914	-0.26654875
225	0x3f49caad	0.78824884
226	0x3e865da3	0.26243314
227	0x3f9d1551	1.227213
228	0x3f24c1b3	0.6435806
229	0x3f2cc9c3	0.67495364
230	0xbebeb441	-0.37246898
231	0x3f0502de	0.519575
232	0x3f7d5ba7	0.98967975
233	0x3f94ed1d	1.1634861
234	0xbc5754c4	-0.013142768
235	0x3e6db095	0.23211892
236	0x3fbf53ab	1.4947408
237	0x3fa7e1d9	1.3115798
238	0x3eec7fbb	0.461912
239	0x3ede5144	0.43421376
240	0xbcce5ab9	-0.025189744
241	0x3ef66f64	0.4813186
242	0x3e56ee17	0.20989262
243	0xbf6f5396	-0.93486917
244	0x3f010aff	0.50407404
245	0xbf370069	-0.71485
246	0x3f3bbb12	0.7333232
247	0xbf6e0b9c	-0.92986465
248	0xbfc35d96	-1.5262935
249	0x3ea7036c	0.32619798
250	0x3fed97d2	1.8561957
251	0x3ecaf7b3	0.39642105
252	0xbf99ebff	-1.2025145
253	0x3dd600ca	0.10449369
254	0xbf67e97d	-0.9059065
255	0x3e167380	0.14692497

sentence_encoder.sent_encoder.weight_ih_l0 f4 [60, 30]
0	0xbe58af27	-0.21160565
1	0xbda820d4	-0.082093865
2	0xbd789fb0	-0.060699165
3	0x3dbe2714	0.09284797
4	0xbdba7562	-0.0910442
5	0xbdd6f59b	-0.10496064
6	0xbd878ef4	-0.06619063
7	0x3df1bb98	0.11803359
8	0x3e0340cc	0.12817687
9	0xbe2970f5	-0.16546996
10	0xbdf988c2	-0.121842876
11	0x3ddc9fc8	0.10772663
12	0x3e0a3fe2	0.13500932
13	0x3e5f981e	0.21835372
14	0x3d7f0668	0.06226197
15	0xbe14d932	-0.14535978
16	0xbdaebffe	-0.08532713
17	0xbe2ac7c1	-0.16677763
18	0xbe51044a	-0.20411792
19	0xbe4cdd5a	-0.20006314
20	0xbd695fcc	-0.056976125
21	0x3bfc30a0	0.0076962262
22	0x3dd4f830	0.103989005
23	0xbe01f5ce	-0.12691423
24	0xbddf20f5	-0.10894958
25	0xbdabeaaa	-0.08394368
26	0xbde0a7e4	-0.109695226
27	0x3d9d15fc	0.07670209
28	0xbe03d2ac	-0.12873334
29	0x3d290410	0.04126364
30	0xbe4e3cd2	-0.20140389
31	0xbdfda94d	-0.12385807
32	0x3d3b02d8	0.04565701
33	0x3dcc9d38	0.099909246
34	0x3d4c9c58	0.04995379
35	0xbe2c6290	-0.16834474
36	0xbd841c8e	-0.06450759
37	0x3e0aba24	0.1354757
38	0xbe32bf7a	-0.17455855
39	0x3d56cb68	0.052440077
40	0x3e51e0a6	0.20495853
41	0x3e4367d6	0.19082579
42	0x3d8dbb84	0.069205314
43	0x3df0edf8	0.11764139
44	0xbd1e02ec	-0.038577005
45	0xbe25fc3e	-0.16209504
46	0xbde8939a	-0.11356278
47	0x3d1f8b28	0.03895107
48	0x3ddd6e98	0.1081211
49	0xbe5c53dd	-0.21516366
50	0xbce658b0	-0.028118461
51	0x3e56c79e	0.20974585
52	0xbd4183e4	-0.04724492
53	0xbe40ac38	-0.18815696
54	0x3e232426	0.15931758
55	0xbe594a07	-0.21219645
56	0x3e310d72	0.17290285
57	0xbc176d80	-0.009242415
58	0xbe2fa087	-0.1715108
59	0xbe0854c8	-0.13313591
60	0xbe1e4d4b	-0.15459172
61	0xbd102584	-0.035192028
62	0x3e44f364	0.19233471
63	0xbddb1e16	-0.10699098
64	0x3e0af192	0.13568714
65	0x3d86259c	0.06550142
66	0x3e1bc700	0.15212631
67	0x3e1b8242	0.15186408
68	0x3dfd052c	0.12354502
69	0xbd102d34	-0.03519936
70	0x3e52df64	0.2059303
71	0x3d80fa94	0.06297794
72	0xbd973ed8	-0.07385033
73	0xbdb4043e	-0.08789872
74	0xbdfa1ef0	-0.12212932
75	0x3e60e200	0.21961212
76	0xbe623984	-0.22092253
77	0x3e1ba5ce	0.15199968
78	0xbdb52484	-0.088448554
79	0x3d01bca8	0.031674057
80	0x3e129b98	0.14317167
81	0xbe0639ac	-0.13107938
82	0x3e4c15a4	0.1993013
83	0x3e39c7ba	0.18142596
84	0xbe0ad5d8	-0.13558137
85	0x3e068b60	0.13139105
86	0x3e63cbf8	0.22245777
87	0x3d5dcb98	0.05414924
88	0x3cffb290	0.031213075
89	0x3dc28ea8	0.09499866
90	0x3e53e298	0.20691907
91	0xbe321337	-0.17390142
92	0x3de3b398	0.11118239
93	0x3e3e9f98	0.18615568
94	0x3c589e10	0.013221279
95	0x3d9830dc	0.07431194
96	0xbca62ef8	-0.020286068
97	0xbdf54ec4	-0.11977914
98	0xbe3150a8	-0.17315924
99	0xbd8fc408	-0.07019812
100	0xbadd2400	-0.0016871691
101	0xbd058cd0	-0.032604992
102	0x3d81df3c	0.06341407
103	0xbd09c5ac	-0.03363578
104	0xbd417ef0	-0.047240198
105	0x3d566568	0.052342802
106	0x3da8fe08	0.082515776
107	0xbe1673f8	-0.14692676
108	0xbd50726c	-0.05089037
109	0xbcbbdbe8	-0.022932008
110	0xbe4e7bdd	-0.20164438
111	0x3e529af0	0.20566916
112	0xbe2a46b3	-0.16628532
113	0x3e3438b4	0.17599756
114	0xbdf5de7a	-0.12005325
115	0xbdbc06d8	-0.09180993
116	0x3e2ff0b0	0.17181659
117	0x3df2d0cc	0.11856231
118	0xbe61b5ae	-0.22041962
119	0x3dc0774c	0.09397754
120	0x3e4ac620	0.19802141
121	0xbdb908a0	-0.09034848
122	0xbe0e6a1e	-0.13907668
123	0xbdacb79e	-0.0843346
124	0xbd915dfc	-0.07098004
125	0xbdeeb298	-0.11655158
126	0x3e627b06	0.22117242
127	0xbe5a7a92	-0.2133582
128	0x3d1a43f0	0.037662446
129	0xbe493d76	-0.19652352
130	0xbdf057cd	-0.11735497
131	0x3d59a9b8	0.053140372
132	0x3d178a10	0.0369969
133	0x3e455086	0.19268999
134	0x3e5752fe	0.21027753
135	0xbe63d988	-0.2225095
136	0x3e529930	0.20566249
137	0xbdebd917	-0.11516016
138	0x3e404f48	0.18780243
139	0x3e021746	0.1270419
140	0xbe1d89b5	-0.15384562
141	0x3ce70dd0	0.028204829
142	0xbe279ca2	-0.16368344
143	0xbd93aaac	-0.072102875
144	0x3e20adde	0.15691325
145	0x3e3ee800	0.18643188
146	0xbe1c5339	-0.15266122
147	0x3e3a0464	0.18165737
148	0x3e0642a2	0.13111356
149	0xbe238bbd	-0.15971275
150	0x3d6c4548	0.05768326
151	0xbe3ec5db	-0.18630163
152	0x3dcdd0a4	0.10049561
153	0x3e16ac12	0.14714077
154	0xbd8d98a6	-0.06913881
155	0x3dc3653c	0.09540793
156	0x3e5dc3be	0.21656701
157	0x3e336454	0.17518741
158	0x3d9a1220	0.07522988
159	0xbe1d2cfd	-0.15349193
160	0x3e504d2a	0.20341936
161	0x3de72794	0.11286846
162	0xbdfd9408	-0.1238175
163	0xbda4fdde	-0.08056234
164	0x3b1e2d80	0.0024136007
165	0x3e528a7e	0.20560643
166	0xbe04e34b	-0.1297733
167	0xbd83aae8	-0.06429082
168	0x3cd2b6e8	0.025721982
169	0x3d7b20c8	0.06131056
170	0x3e08f942	0.13376334
171	0xbe12c238	-0.14331901
172	0xbe2c4f43	-0.16827111
173	0x3d39a168	0.045319945
174	0x3dd3b580	0.10337353
175	0x3e318a96	0.17338023
176	0x3ccf2678	0.025286898
177	0xbe0e9ff2	-0.13928202
178	0xbe1bb8b6	-0.1520718
179	0xbdf48e28	-0.11941177
180	0xbcfc40b0	-0.030792564
181	0xbd273568	-0.040822417
182	0xbddc3b8c	-0.10753545
183	0x3e4af652	0.19820526
184	0x3e5e2dea	0.21697202
185	0xbd409fdc	-0.047027454
186	0x3d097610	0.03355986
187	0x3dc42a98	0.095784366
188	0xbe292526	-0.16518077
189	0xbd74b02c	-0.059738323
190	0xbde47da3	-0.11156776
191	0x3e5b3144	0.21405512
192	0x3de45358	0.11148709
193	0x3e332998	0.17496336
194	0xbe480195	-0.19531853
195	0xbe524b13	-0.20536451
196	0xbe35043e	-0.176774
197	0xbe24314a	-0.16034427
198	0xbde81379	-0.11331839
199	0x3da0bba0	0.07848287
200	0x3d341ce0	0.04397285
201	0xbe2b55bd	-0.16731925
202	0x3d617100	0.055039406
203	0xbd8cc37a	-0.06873222
204	0xbcd06c28	-0.025442198
205	0xbe3927a8	-0.18081534
206	0x3d18fd30	0.037350833
207	0x3e0d1a94	0.1377967
208	0xbe088d2e	-0.13335106
209	0xbe474da8	-0.19463217
210	0x3e37703e	0.17913911
211	0xbdaa3720	-0.083112955
212	0xbe021191	-0.12702014
213	0xbc50a1d0	-0.012733892
214	0x3e419436	0.18904194
215	0x3dafae98	0.08578223
216	0xbda328f4	-0.079667956
217	0x3d2bd618	0.041952223
218	0xbd19f8f0	-0.03759092
219	0xbe2e8241	-0.17041875
220	0xbd4e51f0	-0.05037111
221	0x3db4851c	0.08814451
222	0x3e5e62ee	0.21717426
223	0x3d535890	0.05159813
224	0x3e55aad8	0.20865953
225	0x3c9c1630	0.019053549
226	0x3c3c4970	0.011492118
227	0xbd94d1b2	-0.07266559
228	0x3d536158	0.051606506
229	0x3e36c3f2	0.17848185
230	0x3e26eff2	0.1630247
231	0x3d1e1318	0.038592428
232	0x3d666370	0.056247175
233	0xbe438e80	-0.19097328
234	0x3e14679a	0.14492646
235	0x3d58a070	0.05288738
236	0x3e129078	0.14312923
237	0xbe13e9b0	-0.14444613
238	0xbe1a2e44	-0.15056711
239	0x3dc54034	0.096313864
240	0xbe4f5bfb	-0.20249932
241	0xbe304dcc	-0.17217177
242	0x3d014358	0.031558365
243	0x3daa1730	0.08305204
244	0x3e17fba4	0.14842087
245	0xbde6419e	-0.11242984
246	0xbe3d92a9	-0.18512978
247	0xbc9de530	-0.019274324
248	0xbe2f0272	-0.17090777
249	0xbdcb1071	-0.09915245
250	0xbe5bc740	-0.21462727
251	0x3bca2b60	0.0061697215
252	0xbd7efb18	-0.06225118
253	0x3e13d94c	0.14438361
254	0x3d0edd18	0.03487882
255	0xbcd7ff70	-0.02636692

sentence_encoder.sent_encoder.weight_hh_l0 f4 [60, 20]
0	0x3e6090a2	0.21930173
1	0xbdbcf5d6	-0.09226577
2	0xbe4900b8	-0.1962918
3	0x3e0483d6	0.12940916
4	0x3e53c59c	0.2068085
5	0x3da1e1b0	0.079043746
6	0x3d56b670	0.05242008
7	0x3e24b478	0.16084468
8	0xbd2d2224	-0.042268887
9	0xbd3d9adc	-0.046290264
10	0x3dfae734	0.1225113
11	0xbba59c40	-0.005054027
12	0xbd8c3a1a	-0.068470195
13	0xbd755d78	-0.059903592
14	0xbc418c90	-0.011813298
15	0xbd98cfa8	-0.07461482
16	0x3e00fc76	0.12596306
17	0x3e089272	0.13337114
18	0x3e1f05ca	0.15529552
19	0x3e316ee6	0.1732746
20	0x3d57c3b0	0.052676857
21	0x3c4db2f0	0.012554869
22	0xbe4084e7	-0.18800698
23	0x3e2b2ab6	0.16715512
24	0xbda6e4e2	-0.08149125
25	0x3e47b0be	0.19501016
26	0xbe22f33d	-0.159131
27	0xbe565fb1	-0.20934941
28	0xbe00991e	-0.1255841
29	0x3db518b8	0.08842605
30	0x3d88e8f0	0.06685054
31	0x3ca7a860	0.02046603
32	0x3e0da3ca	0.13832012
33	0x3de87d3c	0.113520116
34	0x3d6275a0	0.055287957
35	0xbd7ba394	-0.061435297
36	0xbe31528c	-0.17316645
37	0x3c5c3de0	0.0134424865
38	0xbd588610	-0.052862227
39	0x3dca6700	0.09882927
40	0x3e615a22	0.22007039
41	0xbe18502e	-0.14874336
42	0xbe314b5f	-0.17313908
43	0xbd9442ae	-0.07239281
44	0x3d0ba5b8	0.03409359
45	0xbe4e29be	-0.20133111
46	0xbe29a5a9	-0.165671
47	0xbdc1d678	-0.09464735
48	0x3d0355a8	0.03206411
49	0xbe289175	-0.16461737
50	0x3d813758	0.06309384
51	0x3e3ba5ca	0.18324962
52	0x3e13fdee	0.14452335
53	0x3dc96cd4	0.098352104
54	0x3bb686e0	0.0055702776
55	0xbe25f2a1	-0.16205837
56	0x3e155188	0.14581883
57	0xbd885e8e	-0.0665866
58	0x3d267030	0.040634334
59	0xbd63f858	-0.05565676
60	0x3de8735c	0.11350128
61	0xbe570784	-0.2099896
62	0x3df8be2c	0.121456474
63	0xbe2df320	-0.16987276
64	0xbca7d7b8	-0.020488605
65	0x3e116752	0.1419957
66	0xbe0187c5	-0.12649448
67	0xbe242bc6	-0.16032323
68	0x3e264fca	0.16241375
69	0xbe46389f	-0.19357537
70	0x3e085d62	0.13316873
71	0xbb9d1d40	-0.0047947466
72	0xbe3cc6ea	-0.18435255
73	0x3d1ec8a8	0.03876558
74	0x3a423200	0.0007407963
75	0xbb4cd940	-0.003125742
76	0xbbba4c40	-0.0056853592
77	0x3c4b5970	0.01241146
78	0x3e37b540	0.17940235
79	0xbe2598ff	-0.16171645
80	0xbd8d10e0	-0.06887984
81	0xbe336b41	-0.17521383
82	0x3e3b4f24	0.18291909
83	0x3e640f5e	0.22271487
84	0xbe1c08e8	-0.15237772
85	0xbe023afe	-0.12717816
86	0x3e2a872c	0.16653126
87	0x3e3e8098	0.18603742
88	0x3cfe1020	0.031013548
89	0xbde884c2	-0.113534465
90	0x3e3a59b4	0.18198282
91	0x3c12fed0	0.008971885
92	0xbe029c88	-0.12755024
93	0x3c0dd120	0.008655816
94	0xbdab458c	-0.083628744
95	0x3d5b0d88	0.0534797
96	0x3e1f376c	0.15548486
97	0x3d986d80	0.074427605
98	0x3e4daf60	0.20086432
99	0x3c85bd10	0.016325504
100	0x3e0fd842	0.1404734
101	0xbe28bff6	-0.16479477
102	0xbdc044a2	-0.09388091
103	0xbd4b90f8	-0.0496988
104	0x3e2df93c	0.16989607
105	0xbe2da40c	-0.1695711
106	0x3c9d52d0	0.019204527
107	0xbd3d1c4c	-0.046169564
108	0xbe3cec0e	-0.18449423
109	0x3d01c4c8	0.031681806
110	0x3e4a9f84	0.19787413
111	0x3c4edef0	0.012626395
112	0x3e3f5bf8	0.18687427
113	0x3e4d9022	0.20074514
114	0x3dfa2a44	0.12215093
115	0x3e5735ae	0.21016571
116	0x3c60fd10	0.01373221
117	0x3de169b0	0.110064864
118	0xbe448d9e	-0.19194648
119	0x3d8dc6cc	0.06922683
120	0x3e0b33f2	0.13594034
121	0xbe559e5b	-0.20861189
122	0xbda9d076	-0.08291714
123	0x3dd63cd4	0.10460821
124	0xbe3d25a9	-0.18471397
125	0xbda80272	-0.082035914
126	0x3dffaeb8	0.12484497
127	0x3daba6b4	0.083814055
128	0xbe30b4bb	-0.17256443
129	0xbd8bb2c4	-0.06821206
130	0xbdd9f7ee	-0.10642992
131	0x3e1d7e62	0.15380242
132	0xbe55e4e0	-0.2088809
133	0x3e327ff2	0.1743162
134	0x3e4e934e	0.2017338
135	0x3d8c6ae0	0.06856322
136	0x3ce95890	0.028484613
137	0x3e048432	0.12941054
138	0x3e2e8806	0.17044076
139	0xbdc99986	-0.098437354
140	0x3b6b74c0	0.0035927743
141	0xbcb55208	-0.022133842
142	0xbe2096f6	-0.15682587
143	0x3e2be808	0.16787732
144	0x3e41dff4	0.18933088
145	0x3e5372e2	0.20649293
146	0x3db3d1d4	0.08780256
147	0x3da47494	0.08030048
148	0x3dba9778	0.091109216
149	0xbe5e36ce	-0.21700594
150	0x3e3a98a8	0.18222296
151	0xbd2061ac	-0.039155647
152	0xbd4da410	-0.05020529
153	0xbe1c2962	-0.15250161
154	0x3d28a998	0.041177362
155	0x3e3df06a	0.18548742
156	0xbdc797b0	-0.09745729
157	0x3d437b40	0.047724962
158	0xbe2cda7c	-0.1688022
159	0xbdc92348	-0.098211825
160	0x3e06c904	0.13162619
161	0xbe3e4748	-0.18581879
162	0x3cc34770	0.023837775
163	0x3e61902c	0.22027653
164	0x3dbbf67c	0.091778725
165	0xbe045f56	-0.12926993
166	0xbdbe6998	-0.09297484
167	0xbd8c870c	-0.06861696
168	0x3e114d9e	0.14189765
169	0xbe0c2da8	-0.13689291
170	0xbe28e186	-0.1649228
171	0xbd949cac	-0.07256445
172	0x3d316730	0.043311298
173	0xbd2a5af4	-0.041590646
174	0xbdad7f68	-0.084715664
175	0xbd90f284	-0.07077506
176	0x3da58214	0.08081451
177	0x3e40844c	0.18800467
178	0x3e41fca4	0.18944031
179	0xbe09eb85	-0.1346875
180	0x3e2d5198	0.16925657
181	0x3e1d6418	0.15370214
182	0xbd268ca4	-0.04066147
183	0x39f67c00	0.00047013164
184	0xbe1c292f	-0.15250085
185	0xbe323482	-0.17402843
186	0xbe62d185	-0.22150238
187	0x3e04a276	0.12952599
188	0x3e2f260a	0.17104355
189	0x3e09bc00	0.13450623
190	0xbe10e9d4	-0.14151698
191	0x3e10e8fc	0.14151376
192	0x3c2fc6f0	0.010728583
193	0xbd8cc4fa	-0.06873508
194	0x3e0de75e	0.13857791
195	0xbd8fe896	-0.07026784
196	0x3dbca21c	0.092106074
197	0x3c8a4fe8	0.016883805
198	0x3dd73b84	0.105093986
199	0x3e52d9be	0.20590875
200	0x3e3a2a92	0.18180302
201	0xbd90e1b4	-0.070742995
202	0x3e46dda2	0.19420484
203	0x3e00acc2	0.12565902
204	0x3d163b18	0.03667745
205	0xbc398460	-0.011323065
206	0x3e62b072	0.22137621
207	0x3d56bff8	0.05242917
208	0x3dc4011c	0.09570524
209	0x3e1bc26a	0.15210882
210	0xbd847df0	-0.06469333
211	0xbe63bab2	-0.22239187
212	0xbe32aa98	-0.17447889
213	0x3e42df38	0.19030464
214	0xbe4f4fb6	-0.20245251
215	0xbd8f0a64	-0.06984404
216	0xbe16f5d8	-0.1474222
217	0x3e0d0a5c	0.13773483
218	0xbe212025	-0.15734918
219	0x3e4ae37a	0.19813338
220	0x3d05fac0	0.032709837
221	0xbe21d7a0	-0.1580491
222	0x3e3bfba6	0.18357715
223	0x3d7ff280	0.062487125
224	0x3dbcd41c	0.09220144
225	0xbb8a7c20	-0.0042262226
226	0xbe1b88e8	-0.15188944
227	0x3deee240	0.116642475
228	0xbd560360	-0.052249312
229	0xbda4c362	-0.08045079
230	0x3da47eac	0.08031973
231	0xbd508c5c	-0.050915107
232	0x3e5c3c0e	0.21507284
233	0x3e45ffe0	0.1933589
234	0x3e4650f6	0.19366822
235	0xbd992df8	-0.07479471
236	0xbdeec2e4	-0.11658266
237	0xbdaa7154	-0.08322397
238	0xbde27347	-0.11057144
239	0xbe57ec44	-0.21086222
240	0xbd28a030	-0.04116839
241	0xbd608f58	-0.054824203
242	0x3e3c27d4	0.18374568
243	0xbc4cb8e0	-0.0124952495
244	0x3dc4d2bc	0.09610507
245	0xbe3205b0	-0.17384982
246	0xbe63d9ea	-0.22251096
247	0x3e23b8ae	0.15988418
248	0xbe44533c	-0.19172376
249	0xbe0def56	-0.1386083
250	0xbe08a358	-0.1334356
251	0xbe35e734	-0.17763978
252	0xbe116e40	-0.14202213
253	0xbe5accc1	-0.2136717
254	0xbe1f3afd	-0.15549846
255	0x3dbeb82c	0.09312472

sentence_encoder.sent_encoder.bias_ih_l0 f4 [60]
0	0xbd215348	-0.039386064
1	0xbd94d61c	-0.072674006
2	0x3e51e55e	0.20497653
3	0x3db401f4	0.08789435
4	0x3e3745dc	0.17897743
5	0xbe368c62	-0.1782699
6	0x3e55f61c	0.20894665
7	0xbde39ab8	-0.11113495
8	0x3e06a4f0	0.13148856
9	0x3c0a4910	0.008440271
10	0x3dd19954	0.10234323
11	0xbe0ce87c	-0.13760561
12	0x3e1d4f8c	0.15362376
13	0x3d4fbc78	0.050716847
14	0x3deae6b4	0.114697844
15	0xbc130340	-0.008972943
16	0x3d2b33e0	0.04179752
17	0x3d96861c	0.07349798
18	0xbd28e338	-0.041232318
19	0xbe2c5999	-0.16831054
20	0x3e3014be	0.17195413
21	0xbdd885fc	-0.105724305
22	0x3de6a0b8	0.112611234
23	0xbc150e40	-0.009097636
24	0xbd3f4318	-0.046694845
25	0x3e162806	0.14663705
26	0x3e34a814	0.17642242
27	0xbd98e94a	-0.07466371
28	0x3da2e550	0.07953894
29	0x3e32cddc	0.17461342
30	0x3e5896ea	0.21151319
31	0x3dbf5974	0.09343234
32	0x3e0fd5d2	0.1404641
33	0xbe061a5e	-0.13095996
34	0xbb1c0280	-0.00238052
35	0x3caf9e18	0.02143769
36	0x3c46c250	0.012131289
37	0x3df810f8	0.121126115
38	0x3db82df4	0.0899314
39	0xbc776420	-0.015099555
40	0x3da9a2a8	0.08282977
41	0x3e2faa74	0.17154866
42	0xbe0242fc	-0.12720865
43	0x3e09f2ce	0.13471529
44	0x3ce734c0	0.028223395
45	0x3e614eb6	0.22002682
46	0xbe114096	-0.14184794
47	0xbaf9be80	-0.0019053966
48	0xbe082f0c	-0.13299197
49	0xbd0403f4	-0.032230332
50	0xbd851526	-0.06498174
51	0xbe1509a8	-0.14554465
52	0x3e0ca17c	0.13733476
53	0x3d892c4c	0.06697902
54	0x3e08fbfe	0.13377377
55	0xbe58006e	-0.21093914
56	0x3d9754e4	0.073892385
57	0xbcf687a0	-0.030093968
58	0x3dbd27e4	0.09236124
59	0x3dca0610	0.098644376

sentence_encoder.sent_encoder.bias_hh_l0 f4 [60]
0	0xbd9e8142	-0.07739498
1	0x3d3374e0	0.043812633
2	0xbd7a3b10	-0.061091483
3	0x3d1703c0	0.03686881
4	0x3dbaf7f0	0.091293216
5	0x3e4abb8c	0.19798106
6	0xbe3105e4	-0.17287403
7	0x3e35ac58	0.17741525
8	0xbe1b1dd2	-0.15148094
9	0xbcfaabf8	-0.03059958
10	0xbbd38e80	-0.0064561963
11	0x3e054ce2	0.1301761
12	0x3e62e480	0.22157478
13	0xbdefd76f	-0.117110126
14	0x3e31a64a	0.1734859
15	0xbdc48dfc	-0.09597394
16	0xbe4aa366	-0.19788894
17	0xbd62653c	-0.055272326
18	0x3de446c0	0.11146307
19	0x3d58dc20	0.052944303
20	0xbdb7298c	-0.08943471
21	0xbd38b5cc	-0.04509525
22	0xbdc7c850	-0.097550035
23	0xbe11648e	-0.14198515
24	0x3d7a87b0	0.061164558
25	0xbe2ffbed	-0.17185946
26	0xbd164534	-0.03668709
27	0xbe100d18	-0.14067495
28	0xbe25001d	-0.16113324
29	0xbe48ebbc	-0.19621176
30	0xbd07d378	-0.033160657
31	0x3dd24760	0.1026752
32	0x3d92c3c8	0.071662486
33	0x3d027758	0.031852096
34	0xbda595e2	-0.080852285
35	0xbe56fd67	-0.20995103
36	0x3dc95288	0.09830195
37	0x3e4bdc36	0.19908223
38	0xbe615b3f	-0.22007464
39	0xbd9edc40	-0.07756853
40	0xbdfdc6f8	-0.12391466
41	0xbdf17783	-0.11790373
42	0xbbff0a80	-0.007783234
43	0x3e3e9108	0.18610013
44	0xbd302e5c	-0.04301296
45	0x3d856cd0	0.06514895
46	0x3d8aa654	0.06770006
47	0x3e17a450	0.14808774
48	0x3d7cbff0	0.061706483
49	0x3d880cc0	0.06643057
50	0xbd93ba52	-0.07213272
51	0x3ae31480	0.0017324835
52	0x3d036a50	0.03208381
53	0xbc903a30	-0.017605871
54	0xbe277a50	-0.16355252
55	0x3e11daa6	0.14243564
56	0xbd8e6b5e	-0.069540724
57	0xbe267ffc	-0.1625976
58	0x3c599ad0	0.013281539
59	0xbe0aa40c	-0.13539141

sentence_encoder.sent_encoder.weight_ih_l0_reverse f4 [60, 30]
0	0x3e63b73e	0.2223787
1	0x3d631030	0.05543536
2	0x3cba1bb0	0.02271828
3	0xbe1ff5e8	-0.1562115
4	0x3e4d7590	0.20064378
5	0xbd830420	-0.06397271
6	0xbe1976e2	-0.14986756
7	0xbcbeecd0	-0.02330628
8	0x3e406032	0.18786696
9	0xbe1907b4	-0.14944345
10	0x3e4c1d1e	0.19932982
11	0xbde56e32	-0.11202659
12	0x3e5c43ee	0.21510288
13	0x3e212e50	0.15740323
14	0x3e366486	0.17811784
15	0x3e0b2c4c	0.13591117
16	0xbe0ed199	-0.13947143
17	0xbdca05bc	-0.09864375
18	0x3e24d6a0	0.16097498
19	0xbd1aa360	-0.037753463
20	0xbd85ca3e	-0.06532715
21	0x3e15f7ac	0.1464526
22	0xbd52d198	-0.051469415
23	0x3e3a5f4a	0.18200412
24	0xbd177b3c	-0.03698276
25	0x3ddcd128	0.10782081
26	0x3dcf4a10	0.10121548
27	0xbde2e6b7	-0.110791616
28	0x38be3800	9.070337e-05
29	0xbe0821ba	-0.13294116
30	0x3d29b5a0	0.041432977
31	0xbe54cfee	-0.20782444
32	0x3ca34278	0.019929156
33	0xbdd6b242	-0.10483219
34	0xbddd9f43	-0.108213924
35	0xbe212d8a	-0.15740028
36	0xbdcae7b1	-0.09907473
37	0x3df76678	0.12080091
38	0x3dccb6e4	0.09995821
39	0x3e012d48	0.1261493
40	0xbb98ed80	-0.004666984
41	0x3e2c21aa	0.16809717
42	0xbdba1ce4	-0.09087542
43	0x3e568f10	0.20953012
44	0xbc664bf0	-0.014056191
45	0x3d1f3700	0.03887081
46	0x3e4db4ac	0.20088452
47	0xbd3d1a18	-0.046167463
48	0x3c73d5f0	0.01488255
49	0xbe1b9f14	-0.15197402
50	0x3e1a2e74	0.15056783
51	0x3e37f094	0.17962867
52	0xbd829042	-0.06375171
53	0xbc5be1e0	-0.013420552
54	0xbc5e9c50	-0.0135870725
55	0x3e16c4ac	0.14723462
56	0xbca3de50	-0.020003468
57	0x3d280380	0.041018963
58	0x3e2d9bf0	0.16954017
59	0x3ddcbaa4	0.107777864
60	0x3bebda80	0.007197678
61	0xbd6baab4	-0.057535842
62	0x3e5e9f4c	0.21740454
63	0xbdab5d72	-0.08367433
64	0xbd5dc5bc	-0.054143652
65	0xbd84daf8	-0.064870775
66	0x3cc28978	0.02374719
67	0xbc936340	-0.017991662
68	0x3d64e410	0.05588156
69	0xbd2517f4	-0.040306047
70	0xbc4f9930	-0.0126708
71	0x3bb9a1c0	0.005665034
72	0xbe288caf	-0.16459917
73	0xbc0c6530	-0.008569047
74	0x3d7bdfe8	0.06149283
75	0xbad0ab00	-0.0015920103
76	0xbe640ab4	-0.22269708
77	0x3da78a20	0.08180642
78	0x3e55950c	0.20857638
79	0xbe41a633	-0.18911056
80	0xbe42c049	-0.19018663
81	0x3dbd9704	0.092573196
82	0xbe0611bc	-0.13092703
83	0x3daf2340	0.08551645
84	0x3adfef80	0.0017084926
85	0x3e3cb954	0.18430072
86	0x3c87f400	0.01659584
87	0xbe0d7c74	-0.13817006
88	0xbe31b3f0	-0.17353797
89	0xbe013b2e	-0.12620232
90	0xbbabafe0	-0.005239472
91	0xbd223a44	-0.039606348
92	0x3de623b4	0.112372786
93	0xbc6c7e50	-0.014434412
94	0xbc92a918	-0.017902896
95	0xbe3fa591	-0.18715502
96	0xbe61b6e7	-0.22042428
97	0x3d9efc9c	0.07763025
98	0xbe5b2b84	-0.21403319
99	0xbddd05de	-0.10792135
100	0xbe56a512	-0.20961407
101	0xbd86249c	-0.065499514
102	0xbd119d10	-0.035550177
103	0xbc3235b0	-0.010877058
104	0x3d783318	0.0605956
105	0x3dd5003c	0.10400435
106	0xbd2f1050	-0.042740166
107	0x3e462dc6	0.19353399
108	0xbe0d8da0	-0.13823557
109	0xbe495c98	-0.19664228
110	0xbdc9c630	-0.098522544
111	0x3de6951c	0.11258909
112	0x3dbdaa34	0.09260979
113	0xbd7dd6ac	-0.061972305
114	0x3e17e2a6	0.14832553
115	0xbd25c178	-0.04046771
116	0xbe366aa5	-0.17814119
117	0xbe03020e	-0.12793753
118	0x3c9feff8	0.019523606
119	0xbc74a500	-0.014931917
120	0xbd82cec8	-0.06387097
121	0xbd2145b8	-0.03937313
122	0x3e40917a	0.18805495
123	0xba528a00	-0.0008031428
124	0x3d436110	0.047699988
125	0x3d897538	0.06711811
126	0xbe367bf0	-0.17820716
127	0xbbe4cec0	-0.0069826543
128	0xbcf78bc8	-0.03021802
129	0x3c07e480	0.008294225
130	0x3e5ff69e	0.2187142
131	0xbe33bcb0	-0.17552447
132	0xbbed08e0	-0.007233724
133	0xbd951df8	-0.07281107
134	0xbd596404	-0.053073898
135	0xbe4a70ca	-0.19769588
136	0x3e587178	0.21137035
137	0xbcd96268	-0.026536182
138	0xbd41d158	-0.047318786
139	0xbcbaf740	-0.022822976
140	0x3e11a022	0.14221242
141	0x3e62db70	0.22154021
142	0xbd87656a	-0.0661114
143	0x3d11f0f8	0.035630196
144	0x3db8e2f4	0.09027663
145	0x3e5c1698	0.21492994
146	0x3d82a420	0.063789606
147	0xbdf0c260	-0.11755824
148	0xbd51d574	-0.051228955
149	0x3dabe810	0.08393872
150	0xbd233044	-0.03984095
151	0x3e5e704a	0.21722522
152	0x3cb080c8	0.021545783
153	0x3e1addb0	0.1512363
154	0xbe3200b4	-0.1738308
155	0xbe5608dc	-0.20901817
156	0xbd596594	-0.053075388
157	0x3e0256c0	0.12728405
158	0xbe5d32b0	-0.21601367
159	0xbd2e4b7c	-0.042552456
160	0x3e63ee7c	0.22258943
161	0x3d8c0384	0.06836608
162	0x3b34a600	0.0027564764
163	0xbdf60f4e	-0.12014638
164	0x3e4bac0a	0.19889846
165	0xbcf7adc8	-0.030234233
166	0xbd3c41c8	-0.04596117
167	0x3e41fc78	0.18943965
168	0xbe2f4d58	-0.17119348
169	0x3dc8abcc	0.09798393
170	0xbe0df30a	-0.13862243
171	0x3cd86200	0.026413918
172	0x3e17d0e8	0.14825785
173	0x3e527602	0.20552829
174	0xbe133e70	-0.14379287
175	0x3ceaaf80	0.028648138
176	0xbe4b0f87	-0.19830142
177	0x3dc03930	0.09385908
178	0xbe24f7a2	-0.1611009
179	0x3e2dac50	0.16960263
180	0xbe0236ba	-0.12716189
181	0x3dbd1bf0	0.09233844
182	0x3dc7d718	0.09757823
183	0x3caf7fa0	0.021423161
184	0xbda441d4	-0.08020368
185	0xbd8da5c4	-0.06916383
186	0xbe633a3b	-0.22190182
187	0xbc6656d0	-0.014058784
188	0xbe60c4d7	-0.21950088
189	0x3d7d4648	0.061834604
190	0x3e504d2e	0.20341942
191	0xbdb08f44	-0.08621076
192	0xbe3fa588	-0.18715489
193	0xbe4b4134	-0.19849092
194	0xbdbe6f3a	-0.092985585
195	0xbd798c78	-0.060924977
196	0xbccd6cb0	-0.02507624
197	0x3e03aad2	0.12858132
198	0x3e5ea5f2	0.2174299
199	0xbe36279c	-0.17788547
200	0x3e2a3ece	0.1662552
201	0xbcb897d8	-0.022533342
202	0xbe515668	-0.20443118
203	0xbdb9eb44	-0.090780765
204	0xbde89f50	-0.113585114
205	0x3e441af6	0.1915091
206	0xbd86823e	-0.065678105
207	0xbe11c2fc	-0.14234537
208	0xbe31ac25	-0.17350824
209	0xbe39c406	-0.18141183
210	0xbd2d1e80	-0.042265415
211	0x3d7c74e8	0.061634928
212	0x3d594e18	0.05305299
213	0xbe1f09d2	-0.1553109
214	0x3c20bb40	0.009810269
215	0xbd989c1e	-0.07451652
216	0x3dfe4adc	0.12416622
217	0x3e5ed9fe	0.21762845
218	0xbe2e1824	-0.17001396
219	0xbe1ce12e	-0.15320274
220	0x3e1d9c88	0.15391743
221	0xbd239870	-0.039940298
222	0x3e325402	0.17414859
223	0x3cb986d0	0.022647291
224	0xbcffbf80	-0.031219244
225	0x3db5374c	0.08848438
226	0xbd2177b4	-0.0394208
227	0xbe597a6e	-0.2123811
228	0xbd229eb0	-0.039702117
229	0xbd83ed4e	-0.06441747
230	0x3df3895c	0.118914336
231	0x3e400626	0.18752345
232	0xbd9756b0	-0.07389581
233	0x3e5cd3aa	0.21565118
234	0xbe41b780	-0.18917656
235	0xbdd35abd	-0.10320041
236	0xbdfee8ce	-0.12446748
237	0x3c8d3a08	0.017239586
238	0x3e45dbe2	0.1932216
239	0xbe193c3a	-0.14964381
240	0xbd1b50b8	-0.037918776
241	0x3da3d9f4	0.08000556
242	0xbe5fcb1f	-0.21854828
243	0xbe26a7a2	-0.16274884
244	0xbdfd2022	-0.123596445
245	0xbe240194	-0.16016227
246	0x3c0cb0e0	0.008587092
247	0x3e2b2c10	0.16716027
248	0xbe03f2c0	-0.1288557
249	0x3d1ac918	0.037789434
250	0x3e391082	0.18072703
251	0xbe401801	-0.18759157
252	0x3cc46a58	0.02397649
253	0x3e44cc94	0.19218665
254	0xbe61f5dd	-0.22066446
255	0x3e14cf0c	0.14532107

sentence_encoder.sent_encoder.weight_hh_l0_reverse f4 [60, 20]
0	0xbc6a1a90	-0.01428856
1	0xbe252c3a	-0.16130152
2	0xbd105fd4	-0.03524764
3	0x3da21298	0.07913703
4	0xbd0a03dc	-0.033695087
5	0x3e60b8b8	0.21945465
6	0x3e4acef8	0.19805515
7	0x3db638e8	0.08897573
8	0xbc395da0	-0.011313826
9	0xbd71049c	-0.058842286
10	0x3d4a9e70	0.049467504
11	0xbc6ccb90	-0.01445283
12	0x3cff02f0	0.03112933
13	0xbcf51360	-0.029916465
14	0xbd79ff18	-0.061034292
15	0x3e36169a	0.1778206
16	0xbcf02a30	-0.029316992
17	0xbe3aac72	-0.18229845
18	0x3e303366	0.17207107
19	0xbc945d90	-0.01811102
20	0xbd8fda48	-0.07024056
21	0x3d3aa480	0.045567036
22	0xbe2bcb8b	-0.16776864
23	0xbbb13040	-0.005407363
24	0xbd353664	-0.044241324
25	0x3c5bc440	0.013413489
26	0xbe507bc1	-0.20359708
27	0x3bec7ae0	0.0072167963
28	0xbd2f1ba8	-0.042750984
29	0x3e0870b0	0.13324237
30	0xbd91b982	-0.07115461
31	0xbd40f3c8	-0.047107488
32	0x3e29a94e	0.16568491
33	0x3d228048	0.03967312
34	0x3d5a8728	0.05335155
35	0xbe5e0a30	-0.21683574
36	0xbd0f9460	-0.03505361
37	0x3c28b060	0.010295957
38	0x3e480d28	0.19536269
39	0x3dfde7b4	0.123977095
40	0xbca58c88	-0.020208612
41	0xbe31a876	-0.17349419
42	0xbe4fe071	-0.20300461
43	0x3da3bf48	0.079954684
44	0x3e376116	0.17908129
45	0x3c2ede80	0.010673165
46	0x3e58f2fc	0.21186441
47	0xbe5a6446	-0.21327314
48	0xbcb1cb58	-0.021703407
49	0x3cfc2bb0	0.03078255
50	0xbd140404	-0.036136642
51	0x3e0ce0ce	0.13757631
52	0x3b7aef00	0.0038289428
53	0x3e02f588	0.12788975
54	0x3e4a46fa	0.19753638
55	0xbde2d604	-0.110759765
56	0x3c78f750	0.015195683
57	0x3dd3bf10	0.10339177
58	0x3e0db8d4	0.13840038
59	0x3e4ff78a	0.20309272
60	0xbe4cd5cc	-0.20003432
61	0x3e14d756	0.14535269
62	0xbe07164a	-0.13192096
63	0xbe2e7420	-0.17036486
64	0x3ca88e90	0.020575792
65	0x3da6ec58	0.08150548
66	0xbe3727f6	-0.17886338
67	0x3e333cd6	0.17503676
68	0xbe0fc294	-0.1403907
69	0x3e396d26	0.18108043
70	0xbe205c02	-0.15660098
71	0xbcd8df00	-0.026473522
72	0xbc38a9f0	-0.011270985
73	0x3db3bd64	0.08776358
74	0x3caa2bd0	0.020772845
75	0xbe4ff344	-0.20307642
76	0x3d15bc88	0.03655675
77	0x3e542b02	0.20719531
78	0x3dc59f14	0.09649482
79	0xbe22139e	-0.15827796
80	0xbd1c56e8	-0.038168818
81	0xbde649f9	-0.11244578
82	0x3cd08278	0.025452837
83	0x3e54900e	0.20758078
84	0x3e354132	0.17700651
85	0xbd8ea712	-0.0696546
86	0x3d0993f8	0.03358838
87	0x3e27f1b2	0.16400793
88	0x3e443cea	0.19163862
89	0x3c60a4e0	0.013711184
90	0x3e10d60e	0.14144155
91	0x3dd87380	0.10568905
92	0x3e1fb832	0.15597609
93	0x3de53ab4	0.11192837
94	0x3e5cfff8	0.2158202
95	0xbdceb315	-0.10092751
96	0x3b922580	0.0044600368
97	0x3e149fee	0.14514133
98	0x38765000	5.8725476e-05
99	0x3e3beda0	0.18352365
100	0xbcecd0a0	-0.028908074
101	0x3e16e820	0.14736986
102	0xbd588078	-0.052856892
103	0x3d022500	0.031773567
104	0x3c333630	0.010938212
105	0x3e03794a	0.12839237
106	0xbccb07e0	-0.024784029
107	0x3e3ebe3c	0.18627256
108	0xbe4a6273	-0.19764118
109	0x3e109992	0.14121082
110	0xbe4f1083	-0.20221142
111	0xbb2481c0	-0.002510175
112	0xbd94de22	-0.07268931
113	0xbdc98794	-0.098403126
114	0x3c14c020	0.009079009
115	0xbe15c1ae	-0.14624664
116	0x3e52b860	0.20578146
117	0x3d80d4ec	0.062906116
118	0xbd2f59a8	-0.042810112
119	0xbe5d57b7	-0.21615492
120	0x3ce54530	0.027987093
121	0x3c921538	0.017832384
122	0xbe032d9c	-0.12810367
123	0x3d98b440	0.07456255
124	0x3e531994	0.20615226
125	0x3b0b6bc0	0.002127394
126	0xbc7cdf80	-0.015434146
127	0xbe634a9b	-0.22196428
128	0x3da89940	0.08232355
129	0x3e5087aa	0.20364252
130	0xbe0b5356	-0.13606009
131	0xbe2e2370	-0.17005706
132	0x3d74a528	0.059727818
133	0xbc50f3b0	-0.012753412
134	0x3e3929e2	0.18082383
135	0x3d18f340	0.037341356
136	0x3e1e5d74	0.15465337
137	0x3e26c7a0	0.16287088
138	0x3e513fe6	0.20434532
139	0x3e3f6e92	0.18694523
140	0x3e27d3d4	0.163894
141	0xbe1ae74a	-0.15127292
142	0x3e2df712	0.16988781
143	0x3c409730	0.011754796
144	0xbe2bb476	-0.16768059
145	0xbd216b04	-0.0394087
146	0xbd776ccc	-0.06040649
147	0x3cdfaaf0	0.027303189
148	0xbd5c75cc	-0.053823277
149	0xb9886a00	-0.00026018918
150	0x3cdbf900	0.02685213
151	0x3dd6331c	0.10458967
152	0xbd0a9e7c	-0.03384255
153	0x3e5a2024	0.21301323
154	0xbda027d8	-0.078200996
155	0x3c51c5c0	0.012803495
156	0x3e24a4a8	0.16078436
157	0xbe18cb3e	-0.1492128
158	0x3bf54280	0.007484734
159	0xbdab810e	-0.083742246
160	0x3e38825c	0.18018478
161	0x3d421740	0.047385454
162	0xbdf39f87	-0.11895662
163	0x3dc6ed10	0.09713185
164	0xbd516794	-0.05112417
165	0xbca0f3b0	-0.01964745
166	0xbdd7bbb1	-0.10533846
167	0xbe070b30	-0.13187861
168	0xbe409a2e	-0.18808815
169	0x3e5362fa	0.20643225
170	0x3e31d0c0	0.17364788
171	0xbb1eb080	-0.002421409
172	0x3e4fe05e	0.20300433
173	0x3ddff380	0.10935116
174	0xbe1b9d11	-0.15196635
175	0xbe0554a8	-0.13020575
176	0x3e2b8ac4	0.16752154
177	0x3d9c98c0	0.07646322
178	0xbdd38f69	-0.10330088
179	0xbca3f400	-0.02001381
180	0x3e1cd512	0.15315655
181	0x3e110882	0.14163402
182	0x3dab8a70	0.08376014
183	0xbdea73bd	-0.114478566
184	0xbd20e76c	-0.0392832
185	0x3e07f5a0	0.13277292
186	0xbe50842d	-0.20362921
187	0xbd9cd8b2	-0.07658519
188	0x3c368370	0.011139736
189	0x3c9928d8	0.018696234
190	0xbd22a8ac	-0.03971164
191	0x3e0a6768	0.13516009
192	0xbdfcbf44	-0.123411685
193	0xbe01a334	-0.12659913
194	0xbdd010b1	-0.10159434
195	0x3d205538	0.03914377
196	0xbe082a19	-0.13297309
197	0xbc68ea10	-0.014215961
198	0xbd7f507c	-0.062332615
199	0x3b32a240	0.0027257353
200	0xbe62bb47	-0.22141753
201	0x3e0ecbe4	0.13944966
202	0x3dbe0344	0.092779666
203	0xbc074850	-0.008256987
204	0xbd1cbbd4	-0.038265064
205	0xbe21dce4	-0.1580692
206	0x3da2c5b4	0.07947865
207	0xbe33eee5	-0.175716
208	0xbe4587b8	-0.19290054
209	0x3e0c1648	0.13680375
210	0x3e52eb24	0.20597512
211	0x3e2d4aec	0.16923112
212	0x3d8b7f0c	0.06811342
213	0xbdbfb234	-0.093601614
214	0xbce967f0	-0.028491944
215	0x3df32a68	0.11873323
216	0x3e0adaae	0.13559982
217	0xbe366df3	-0.1781538
218	0xbe289fa8	-0.16467154
219	0x3e5d25f0	0.21596503
220	0xbcab3790	-0.020900518
221	0x3e23df76	0.16003212
222	0x3e2eb296	0.17060313
223	0xbe5706d1	-0.20998694
224	0xbe5757cf	-0.2102959
225	0x3d9a6adc	0.07539913
226	0xbe1fff1b	-0.15624659
227	0x3de9957c	0.11405465
228	0xbd2a6918	-0.04160413
229	0xbdc554fe	-0.096353516
230	0x3df14760	0.11781192
231	0xbca64c60	-0.02030009
232	0x3c0c01b0	0.008545324
233	0xbe211867	-0.15731965
234	0xbd2bca18	-0.04194078
235	0x3b9a5720	0.004710093
236	0x3d5617e8	0.052268893
237	0xbd6d9140	-0.05799985
238	0xbe180510	-0.14845681
239	0x3cc49270	0.023995608
240	0xbe31ce4b	-0.17363851
241	0x3e4bed9c	0.1991486
242	0xbe5f8a3f	-0.2183008
243	0x3da1b1c4	0.07895234
244	0xbe173885	-0.14767654
245	0xbbb21d00	-0.005435586
246	0xbd814762	-0.06312443
247	0xbdf6820b	-0.120365225
248	0x3e087f84	0.13329893
249	0x3e1fcc02	0.15605167
250	0x3e197720	0.14986849
251	0x3e3346e6	0.17507514
252	0x3d8adcc0	0.06780386
253	0xbc3a6d60	-0.011378616
254	0x3dff1ea0	0.12457013
255	0x3e53c1da	0.20679417

sentence_encoder.sent_encoder.bias_ih_l0_reverse f4 [60]
0	0xbd07ba20	-0.033136487
1	0xbe18b5c0	-0.14913082
2	0x3dc1b52c	0.09458384
3	0x3e5c09d4	0.21488124
4	0x3d94c3dc	0.0726392
5	0xbe5819c3	-0.21103577
6	0xbd6d9e30	-0.058012187
7	0x3e3f6b40	0.18693256
8	0xbd23984c	-0.039940163
9	0xbd0d45b0	-0.034490287
10	0x3dd80f10	0.10549748
11	0x3da68160	0.08130145
12	0xbe5cf8a8	-0.2157923
13	0x3e2caea4	0.16863495
14	0xbd6db2bc	-0.058031783
15	0xba9bfe80	-0.0011901408
16	0x3da1e5f4	0.07905188
17	0x3dfecc38	0.124412954
18	0xbd856d0e	-0.06514941
19	0x3e5e9ce4	0.21739537
20	0x3dc92c94	0.09822956
21	0x3db1bf0c	0.086790174
22	0x3c6394a0	0.013890415
23	0x3cf15770	0.029460639
24	0x3df12cf8	0.11776155
25	0x3e62d4e0	0.22151518
26	0xbe3a3e5d	-0.18187852
27	0x3dcfa16c	0.10138211
28	0x3d05c3a8	0.032657295
29	0xbdc3edb4	-0.09566823
30	0xbdc4fea0	-0.09618878
31	0xbe2db193	-0.1696227
32	0x3df5a760	0.11994815
33	0x3d83c47c	0.06433961
34	0x3da4ab28	0.08040458
35	0xbdb2889e	-0.08717464
36	0xbdf9f266	-0.12204437
37	0xbe3bf68a	-0.18355766
38	0x3dd268b4	0.10273877
39	0xbd598b10	-0.053111136
40	0xbd7e6ebc	-0.062117323
41	0xbe0ccaea	-0.1374928
42	0x3dbbeec4	0.091764
43	0xbda4bb06	-0.080434844
44	0x3deabba8	0.11461574
45	0xbd260ee4	-0.040541545
46	0x3d9162dc	0.07098934
47	0xbe132976	-0.14371285
48	0xbdac348a	-0.084084585
49	0x3d87e5ec	0.06635651
50	0x3e0a0a1a	0.13480416
51	0x3d3b5290	0.045733035
52	0xbd9cc12a	-0.076540306
53	0xbe23cf6a	-0.15997091
54	0x3dd00a20	0.10158181
55	0xbde924b5	-0.113839544
56	0xbdd2440e	-0.10266887
57	0xbe4c0554	-0.19923908
58	0xbe010fce	-0.12603685
59	0x3e333de8	0.17504084

sentence_encoder.sent_encoder.bias_hh_l0_reverse f4 [60]
0	0x3e13a0d6	0.14416823
1	0xbe0daef5	-0.13836272
2	0xbe4e2e78	-0.20134914
3	0xbd0f7d90	-0.035031855
4	0xbe119417	-0.14216648
5	0x3e27e7e6	0.16397056
6	0xbe54a804	-0.20767218
7	0x3e201bf6	0.15635666
8	0x3debe28c	0.1151782
9	0x3aebdf80	0.0017995685
10	0x3e176614	0.14785033
11	0x3e3b40ac	0.18286389
12	0x3e5c7e32	0.21532515
13	0x3d8d665c	0.06904289
14	0xbe5a1b24	-0.21299416
15	0x3da302ec	0.07959542
16	0xbdf0703e	-0.117401585
17	0xbd9a2d56	-0.075281784
18	0x3e0cc83c	0.13748258
19	0xbe3911a0	-0.1807313
20	0xbe3dd3bd	-0.18537803
21	0xbda62b7c	-0.08113763
22	0x3db2e52c	0.08735117
23	0x3dce2f14	0.10067573
24	0xbc2bca50	-0.010485247
25	0xbdc31498	-0.09525412
26	0x3d2170d8	0.039414257
27	0x3e4a48d8	0.1975435
28	0x3cbb44c0	0.022859931
29	0xbe5bfc62	-0.21482995
30	0xbd035598	-0.03206405
31	0x3e2bab0e	0.16764471
32	0x3d4298c8	0.047508985
33	0x3c63e780	0.013910174
34	0x3df92d64	0.12166861
35	0x3d1e5228	0.03865257
36	0x3de8c544	0.113657504
37	0x3e18af96	0.1491073
38	0x3c046cb0	0.008082554
39	0x3e64b166	0.22333297
40	0x3d40ab90	0.047038615
41	0x3e5615ae	0.20906708
42	0xbe3852e7	-0.18000375
43	0xbd15847c	-0.0365033
44	0x3df51cbc	0.11968371
45	0xbe1ead47	-0.15495788
46	0xbe198ff4	-0.1499632
47	0xbd4ddaa4	-0.05025734
48	0xbe2904a2	-0.16505674
49	0xbdf68309	-0.12036712
50	0xbe190628	-0.14943755
51	0x3d3d76a0	0.046255708
52	0x3e2babe6	0.16764793
53	0x3d6ed1d0	0.05830556
54	0x3db10198	0.08642882
55	0x3db48e7c	0.08816239
56	0xbe577b39	-0.210431
57	0xbe1a94b2	-0.15095785
58	0x3e2a7b1c	0.16648525
59	0x3c0ab5c0	0.008466184

document_encoder.doc_encoder.weight_ih_l0 f4 [120, 40]
0	0xbd1f5fb4	-0.03890963
1	0xbc5df470	-0.013547048
2	0x3dab47c2	0.08363296
3	0xbdc01c53	-0.093804024
4	0xbe18e142	-0.14929679
5	0x3d9cb3a2	0.0765145
6	0x3d6a64e0	0.05722511
7	0xbdb1f6ad	-0.08689628
8	0x3db31a30	0.08745229
9	0x3c6dfc50	0.014525488
10	0xbdc92e4c	-0.098232836
11	0x3cb266b8	0.021777496
12	0x3dcd1782	0.100142494
13	0x3e1065d9	0.14101352
14	0x3e1aec2b	0.15129153
15	0x3d91f682	0.07127096
16	0x3e1680e9	0.14697613
17	0xbd50d0ce	-0.05098038
18	0x3b7b2fc0	0.0038328022
19	0x3e0fb9e3	0.14035754
20	0xbdf122d0	-0.11774218
21	0xbddca280	-0.10773182
22	0xbe10258b	-0.14076822
23	0xbd1e9a4e	-0.038721375
24	0x3dcadbd6	0.09905212
25	0xbc644250	-0.013931826
26	0xbd22dfb2	-0.039764114
27	0x3e14bb83	0.14524655
28	0xbcdb3fd0	-0.026763827
29	0xbdf9e70a	-0.1220227
30	0x3d3cd248	0.046098977
31	0x3e0b8a7d	0.13627048
32	0x3e0fa7c3	0.1402884
33	0xbdbd4586	-0.09241776
34	0x3c1060c0	0.0088121295
35	0xbe1e3599	-0.15450133
36	0x3dbdf056	0.09274356
37	0xbd9a347b	-0.07529541
38	0x3d8cd218	0.0687601
39	0xbd782212	-0.060579367
40	0x3dc13f1e	0.09435867
41	0x3da733be	0.08164166
42	0xbdc4e67d	-0.09614275
43	0x3c9b79b0	0.018978924
44	0x3dd4c17e	0.10388468
45	0x3dc21bee	0.094779834
46	0xbe20af7c	-0.15691942
47	0xbd91087b	-0.07081696
48	0xbdfdded6	-0.12396018
49	0xbdf11c78	-0.11773008
50	0x3bf0a040	0.007343322
51	0xbcb6ac68	-0.022299007
52	0x3e1b55b1	0.15169407
53	0xbcc44010	-0.023956329
54	0xbda640bd	-0.081178166
55	0x3d62c660	0.055364966
56	0xbe19eef3	-0.15032558
57	0xbdd1d5ff	-0.10245895
58	0x3e015d9b	0.12633364
59	0xbdb813c4	-0.08988145
60	0x3daf7556	0.08567302
61	0x3e152619	0.14565314
62	0xbc5d4ca0	-0.013507038
63	0xbe105115	-0.1409343
64	0x3e102d9f	0.14079903
65	0x3d83727c	0.064183205
66	0x3dbd943a	0.092567876
67	0x3d34e39c	0.044162378
68	0x3cdb2a08	0.02675344
69	0xbe12018a	-0.142584
70	0xbc811ef0	-0.015761822
71	0x3e0e03a3	0.13868575
72	0xbd89be5a	-0.0672576
73	0xbd6be502	-0.057591446
74	0xbcfb6288	-0.030686632
75	0xbba9c600	-0.005181074
76	0xbd553854	-0.05205567
77	0xbd588708	-0.05286315
78	0xbd7dd374	-0.061969236
79	0x3de69cda	0.11260386
80	0xbd91d3c9	-0.07120473
81	0x3ccda660	0.025103748
82	0x3e100c09	0.14067091
83	0x3e20d579	0.15706433
84	0xbdceb86c	-0.100937694
85	0x3d0bfe2c	0.034177944
86	0xbd35ce52	-0.044386216
87	0x3c4ff410	0.012692466
88	0xbcd086e0	-0.025454938
89	0x3c5b6870	0.013391599
90	0x3e10d943	0.14145379
91	0x3c48d7a0	0.01225844
92	0xbe0f5cb5	-0.14000209
93	0xbe1601da	-0.14649144
94	0xbdb8b92a	-0.09019692
95	0x3d2182dc	0.039431438
96	0xbde87217	-0.11349886
97	0xbaa1a980	-0.001233384
98	0x3d851ac4	0.06499246
99	0x3c1124c0	0.00885886
100	0xbd8c04aa	-0.06836827
101	0xbe0d0a10	-0.1377337
102	0xbe2118b8	-0.15732086
103	0xbb8b0160	-0.0042421073
104	0xbdea6f81	-0.11447049
105	0x3d6d66f0	0.057959497
106	0xbd873e67	-0.06603699
107	0xbda375cc	-0.07981452
108	0x3cef0a00	0.029179573
109	0x3e15e771	0.14639069
110	0x3dfec78a	0.12440403
111	0x3e0c583f	0.13705538
112	0xbe15a9cf	-0.14615558
113	0xbd07af3a	-0.033126093
114	0x3d970cde	0.07375501
115	0x3da3e634	0.08002892
116	0x3e0ebeb3	0.13939933
117	0xbcb07970	-0.02154228
118	0xbc2e02f0	-0.010620818
119	0x3d9d78aa	0.076890305
120	0xbb97cf20	-0.0046328455
121	0xbd9009c0	-0.0703311
122	0x3defea8e	0.1171466
123	0xbd910d78	-0.07082647
124	0xbd08c2e6	-0.033388995
125	0xbccbbf88	-0.024871603
126	0x3dadc5d0	0.08484995
127	0x3e1e793d	0.15475936
128	0x3d81d7b0	0.06339967
129	0xbd8e5bb8	-0.06951088
130	0xbe093d2b	-0.1340224
131	0x3de73212	0.11288847
132	0x3da3bcd2	0.07994999
133	0xbe1df7a8	-0.15426505
134	0x3ad27c80	0.0016058832
135	0xbd671d76	-0.05642458
136	0xbd0b32b8	-0.033983916
137	0x3dd58de6	0.104274556
138	0xbca90968	-0.020634368
139	0x3d4e3b38	0.050349444
140	0x3c19b190	0.009380713
141	0xbe017bd2	-0.1264489
142	0xbdd18a24	-0.10231426
143	0x3dceb502	0.10093118
144	0x3d746e60	0.059675574
145	0xbc7fa7a0	-0.01560393
146	0x3c3eb2b0	0.011639282
147	0x3c0bc210	0.008530155
148	0x3e08049f	0.13283013
149	0x3de74576	0.112925455
150	0x3d23f010	0.040023863
151	0xbe155254	-0.14582187
152	0x3d7ae8b8	0.061257094
153	0x3ddb2286	0.10699944
154	0xbe01ea48	-0.12687027
155	0xbe083147	-0.13300048
156	0xbb711e00	-0.0036791563
157	0xbcde9498	-0.027170464
158	0xbd002324	-0.031283513
159	0x3da72ae2	0.08162476
160	0x3dec2d3e	0.11532067
161	0x3bf15440	0.0073647797
162	0xbdea2a12	-0.114338055
163	0x3b687040	0.0035467297
164	0x3e21140f	0.15730308
165	0x3d4a9418	0.04945764
166	0xbc830520	-0.015993655
167	0x3c0d87e0	0.008638352
168	0xbd6a118c	-0.05714564
169	0x3e09ae8d	0.13445492
170	0xbdf60d01	-0.12014199
171	0x39646000	0.00021779537
172	0x3d70f71c	0.058829412
173	0xbd479c14	-0.048732832
174	0xbd96a8b8	-0.07356399
175	0xbe02417f	-0.12720297
176	0xbd649ec4	-0.055815473
177	0xbd761a22	-0.060083516
178	0xbb4d51c0	-0.0031329244
179	0xbe1acec1	-0.15117933
180	0xbd71fd38	-0.05907938
181	0xbd769bda	-0.060207225
182	0x3e0b3973	0.13596134
183	0xbdc338e5	-0.09532336
184	0xbc605e60	-0.013694376
185	0xbd0f94b6	-0.03505393
186	0xbd809fa7	-0.06280451
187	0x3def1716	0.11674325
188	0xbd7cb46a	-0.061695494
189	0x3e048c85	0.12944229
190	0xbe096fb4	-0.13421518
191	0xbc844938	-0.016148195
192	0x3c320990	0.010866538
193	0xbc10a330	-0.008827969
194	0x3e152d3b	0.14568035
195	0xbd28f1aa	-0.041246094
196	0xbdb45744	-0.08805707
197	0xbd8c952e	-0.06864391
198	0xbd6e657c	-0.05820225
199	0x3c9a20f0	0.018814534
200	0xbc83c268	-0.016083911
201	0x3bed23a0	0.007236913
202	0x3dd0b63e	0.1019101
203	0xbd196654	-0.037451103
204	0x3d5c8d60	0.053845763
205	0x3da6cc46	0.08144431
206	0xbd4674b2	-0.048451133
207	0xbd723578	-0.059133023
208	0xbd04d858	-0.032432884
209	0xbdefc520	-0.117075205
210	0xbdc899dc	-0.09794971
211	0x3e20c9d3	0.1570199
212	0xbe1d9bb6	-0.1539143
213	0x3d34961c	0.044088468
214	0x3d25c470	0.04047054
215	0x3daef592	0.085429326
216	0xbb67c080	-0.0035362542
217	0x3d99790a	0.074937895
218	0xbda6917a	-0.08133216
219	0xbc800a98	-0.015630051
220	0xbd497272	-0.04918141
221	0x3d9f7518	0.07786006
222	0x3d249c70	0.040188253
223	0xbc11e460	-0.0089045465
224	0xbdc068f8	-0.09395021
225	0xbd30dc8a	-0.043179072
226	0xbe07bd13	-0.1325572
227	0xbdb63afa	-0.08897968
228	0xbd6ccd0a	-0.057812728
229	0xbc650c30	-0.0139799565
230	0x3d77f45c	0.060535774
231	0xbc527f00	-0.012847662
232	0x3df95ffa	0.12176509
233	0x3d6d7310	0.05797106
234	0x3d84a268	0.06476289
235	0xbd9c705e	-0.0763862
236	0xbdd780de	-0.10522626
237	0x3e081529	0.13289322
238	0x3d89b354	0.06723657
239	0x3da7dd72	0.08196534
240	0xbe0901e6	-0.1337963
241	0xbd048b84	-0.032359615
242	0xbe0b3e77	-0.13598047
243	0xbd99b9a0	-0.07506108
244	0xbe04440f	-0.12916587
245	0x3c4889d0	0.012239888
246	0x3dc3dd0a	0.09563644
247	0x3c431a70	0.011908159
248	0xbe156141	-0.1458788
249	0x3d155a1c	0.036462888
250	0x3d8fe5ce	0.07026254
251	0xbd1dbaf8	-0.038508385
252	0x3c9fc168	0.019501403
253	0x3d09d858	0.033653587
254	0x3d91e764	0.071242124
255	0xbe19a151	-0.15002944
