run_scripts/neusum.pth (torch_old, 313196 bytes, 28 tensors)

sentence_encoder.model_embeddings.source.weight f4 [14, 30]
0	0x00000000	0.0
1	0x00000000	0.0
2	0x00000000	0.0
3	0x00000000	0.0
4	0x00000000	0.0
5	0x00000000	0.0
6	0x00000000	0.0
7	0x00000000	0.0
8	0x00000000	0.0
9	0x00000000	0.0
10	0x00000000	0.0
11	0x00000000	0.0
12	0x00000000	0.0
13	0x00000000	0.0
14	0x00000000	0.0
15	0x00000000	0.0
16	0x00000000	0.0
17	0x00000000	0.0
18	0x00000000	0.0
19	0x00000000	0.0
20	0x00000000	0.0
21	0x00000000	0.0
22	0x00000000	0.0
23	0x00000000	0.0
24	0x00000000	0.0
25	0x00000000	0.0
26	0x00000000	0.0
27	0x00000000	0.0
28	0x00000000	0.0
29	0x00000000	0.0
30	0xbe209291	-0.1568091
31	0xbfb94056	-1.4472759
32	0x3e87c34d	0.2651619
33	0x3f6ec272	0.9326545
34	0xbebf1dda	-0.37327462
35	0xbfaf374b	-1.3688749
36	0x3cb893ef	0.022531478
37	0x3fe6dffc	1.8037105
38	0x3f0aa062	0.54150975
39	0xbf14a938	-0.5807071
40	0xbf772a9d	-0.965494
41	0x3ddcf3a3	0.107886575
42	0x3f4cac41	0.7995034
43	0x4006872f	2.102001
44	0xbf20fd74	-0.6288674
45	0x3fe130aa	1.7592976
46	0xbff9c138	-1.9512091
47	0x3eac95ff	0.33708188
48	0x3f1fd235	0.62430125
49	0xbf4247ad	-0.7589062
50	0xbfb07f4f	-1.3788851
51	0x3e4672e3	0.19379763
52	0xbcbf017d	-0.02331614
53	0xbf13df8a	-0.5776297
54	0xbef833dd	-0.4847707
55	0xbf11ace5	-0.5690444
56	0x3f1657d7	0.5872778
57	0xbf854f53	-1.0414833
58	0x3f77bfa1	0.9677678
59	0x3f9192d9	1.1372939
60	0x3edfc70e	0.43706554
61	0x3df5898c	0.119891256
62	0x3e4faf3a	0.20281687
63	0xbf01d76e	-0.50719345
64	0x3ec53f7c	0.38524997
65	0x4028bd6d	2.6365616
66	0xbef43a24	-0.47700608
67	0xbe0047d0	-0.12527394
68	0xbdc1704d	-0.09445248
69	0x3f135dca	0.57564986
70	0xbf0e3caf	-0.55561346
71	0x3e889cd7	0.2668216
72	0x3fb50f44	1.4145284
73	0x3f109452	0.5647632
74	0x3f9f8d42	1.2464983
75	0xbf2df68c	-0.67954326
76	0x3dd023dd	0.101630904
77	0xbf99fd93	-1.203051
78	0xbe4b935a	-0.19880429
79	0x3e807087	0.25085852
80	0x3ec213f9	0.37905863
81	0xbeafcdce	-0.34336704
82	0x3e32d497	0.17463909
83	0x3f62cf96	0.88598
84	0x3d55cd36	0.052197658
85	0xbe519da2	-0.20470288
86	0xbfdec3fd	-1.7403561
87	0xbd88c3b0	-0.066779494
88	0xbf1be4da	-0.60896075
89	0x3ffc1e00	1.9696655
90	0xbf7d4c1c	-0.9894426
91	0x3eecf1c3	0.462782
92	0xbef0cc7e	-0.47031015
93	0xbfaaae0b	-1.3334364
94	0xc016ba3e	-2.3551173
95	0xbf823893	-1.0173515
96	0x3db134bd	0.08652637
97	0x3c977e27	0.018492771
98	0x3f2ec866	0.68274534
99	0xbe575824	-0.21029717
100	0xbddd80af	-0.1081556
101	0xbf8d3e09	-1.1034557
102	0x3e3f4ddc	0.18682045
103	0xbfe47835	-1.7849184
104	0xbfc24fe3	-1.518063
105	0xbe67b80b	-0.226288
106	0xbf337246	-0.7009624
107	0x3e472f94	0.19451743
108	0xbf0339b8	-0.51259947
109	0xbfa56f8a	-1.2924664
110	0x3f21fe86	0.63278997
111	0xbf8693a7	-1.051381
112	0xbf1c48f1	-0.610488
113	0x3f6be26c	0.9214237
114	0xbf8206bf	-1.0158309
115	0x3e3e8fc3	0.18609528
116	0x4025ec5f	2.592552
117	0x3f00b409	0.5027471
118	0x3e7c0158	0.24609888
119	0x3e8ae302	0.27126318
120	0xbe3ac714	-0.18240005
121	0x3ec08a64	0.37605584
122	0x3ea62b3c	0.3245486
123	0x3e1501bd	0.14551444
124	0xbfc07952	-1.5037024
125	0xbf107ce8	-0.5644059
126	0xbe5cc27d	-0.21558566
127	0xbf88efe7	-1.0698212
128	0x3fd2b7b5	1.6462313
129	0xbe1f7a18	-0.15573919
130	0x3d921002	0.071319595
131	0xbdc67820	-0.09690881
132	0x3d94111d	0.072298266
133	0xbfcb15c1	-1.5866014
134	0xbd462041	-0.048370603
135	0x3f4b43ce	0.79400337
136	0x3e6f24db	0.23353903
137	0x3f3c1bc1	0.7347985
138	0x3fbed193	1.4907707
139	0xbf208869	-0.62708145
140	0xbf071049	-0.52759224
141	0xbf841c75	-1.0321184
142	0xbf9f8a09	-1.2464
143	0xbe44a2d2	-0.19202736
144	0x3eeabd8a	0.45847732
145	0xbf59d772	-0.8509437
146	0x3f827c16	1.0194118
147	0x3f9f0682	1.2423861
148	0xbfc265f6	-1.5187366
149	0x3fb6fc6b	1.4295782
150	0xbf71f2d2	-0.9451114
151	0x3e48bb0e	0.19602606
152	0xbefb1421	-0.49038795
153	0x3fba52d0	1.4556522
154	0x3f261396	0.64873636
155	0xbf9fe7a1	-1.2492563
156	0x3dc39dfb	0.09551617
157	0xbcaa3dce	-0.020781424
158	0x3f2474a7	0.642405
159	0x3f882d46	1.0638816
160	0x3f812964	1.0090756
161	0xbfde0eaa	-1.7348225
162	0x3efd72f6	0.4950177
163	0x3e02e653	0.12783174
164	0xbfa55fdc	-1.2919879
165	0x3d2788dd	0.040902007
166	0xbe205ffd	-0.15661617
167	0xbd9b0395	-0.075690426
168	0x3df2b9ad	0.11851821
169	0x3ed6a3b6	0.41921777
170	0xbe6504a9	-0.22365059
171	0x3e0636ce	0.13106844
172	0x3e12b94c	0.14328498
173	0xbf28bac8	-0.65910006
174	0xbfe578da	-1.7927506
175	0xbf8bacf5	-1.0912157
176	0x3f846342	1.0342791
177	0x3f1ba6bc	0.6080129
178	0xbf76f16f	-0.9646215
179	0x3e6ff996	0.23435053
180	0xbf247101	-0.6423493
181	0xbeb0669f	-0.34453294
182	0x3f9c4790	1.2209339
183	0xbeb836a6	-0.35979193
184	0x3f15d325	0.58525306
185	0x3ddae952	0.106890336
186	0x401f46e7	2.4887025
187	0x3fa94574	1.322432
188	0x3fad5623	1.3541912
189	0x3ee607de	0.44927877
190	0xbe514533	-0.20436554
191	0x4045d7ac	3.0912886
192	0x3f9aa967	1.2082947
193	0xbf7fc07a	-0.9990307
194	0xbd7a955f	-0.061177608
195	0xbf26c66b	-0.6514651
196	0xbf608133	-0.8769714
197	0xbea52fd0	-0.3226304
198	0xbe972bf8	-0.29525733
199	0x3eb0d819	0.3453987
200	0x400d62e6	2.2091613
201	0x3fd64a5b	1.6741441
202	0xbf3c92b2	-0.7366134
203	0xc004c43f	-2.074478
204	0x3ed3da7e	0.41377634
205	0x3e43bc1d	0.19114728
206	0x3fcac31d	1.5840794
207	0xbd5153df	-0.051105376
208	0xbea08952	-0.31354767
209	0x3e7f6fc7	0.24944983
210	0x3f869c46	1.0516441
211	0xbd91d9ab	-0.07121595
212	0xbdaed126	-0.08535986
213	0x3f035059	0.51294476
214	0xbefda80f	-0.4954228
215	0xbe3c28e7	-0.18374978
216	0x3dfdfeeb	0.12402137
217	0xbe81abbb	-0.25326332
218	0xbfc68741	-1.5510026
219	0x40122501	2.2835085
220	0x3ece8795	0.40337816
221	0x3ffacc63	1.9593624
222	0x3f47cddf	0.7804851
223	0x3faf9f3c	1.372047
224	0x3f55a0b3	0.8344833
225	0xbebdb67e	-0.37053293
226	0xbeeb6af1	-0.45980027
227	0x3f1e6cb5	0.61884624
228	0x3fa21ba5	1.2664686
229	0xbf151acb	-0.5824401
230	0xbda8f18c	-0.082491964
231	0x3f349606	0.7054142
232	0x3f9c4d4d	1.221109
233	0x3f99b4fe	1.200836
234	0x3d93cf52	0.072172776
235	0x3f3f3d36	0.74702775
236	0xbf127e04	-0.57223535
237	0xbffebf97	-1.9902219
238	0x3ebb1884	0.3654214
239	0x3e5182d8	0.20460069
240	0x3e4b4fe6	0.19854698
241	0x3e8796af	0.2648215
242	0x3fd629cc	1.6731505
243	0x400b39b7	2.1753976
244	0x3f17e3e4	0.5933211
245	0x3e876c81	0.2644997
246	0xbf26716f	-0.65016836
247	0x3f5edad6	0.8705267
248	0xbe7757bf	-0.24154566
249	0x3f07d280	0.5305557
250	0x3d0dba95	0.034601767
251	0xbe5c090c	-0.21487826
252	0x3e92fb66	0.28707427
253	0xbe9037d8	-0.28167605
254	0xc014b041	-2.3232577
255	0xbe2f6522	-0.17128423

sentence_encoder.sent_encoder.weight_ih_l0 f4 [60, 30]
0	0xbc715180	-0.014728904
1	0x3c5c3800	0.013441086
2	0xbb169740	-0.0022978336
3	0x3e382f54	0.17986804
4	0xbe471200	-0.1944046
5	0xbd681e14	-0.05666931
6	0xbe11b3c8	-0.14228737
7	0xbd908fdc	-0.07058689
8	0x3e420b3a	0.18949595
9	0x3e28d482	0.16487315
10	0x3d9f03bc	0.07764384
11	0x3d7156f0	0.0589208
12	0xbe2b4b23	-0.16727881
13	0xbd45d794	-0.048301294
14	0x3de0934c	0.10965595
15	0xbdb88e2c	-0.09011492
16	0x3df6de30	0.12054098
17	0xbe1b3b71	-0.15159394
18	0xbde67f0a	-0.112546995
19	0xbdc888c8	-0.09791714
20	0xbd5188c0	-0.051155806
21	0x3dc0ab84	0.09407714
22	0xbe0b7490	-0.13618684
23	0xbe2055e2	-0.15657762
24	0x3d9cf348	0.0766359
25	0x3e112f26	0.14178142
26	0x3e26d0d2	0.16290596
27	0xbe282208	-0.16419232
28	0x3e4e9aa2	0.20176175
29	0x3d36bf20	0.044615865
30	0x3b399300	0.0028316379
31	0x3e3d4aa2	0.18485501
32	0xbcb2b470	-0.021814555
33	0x3d385a28	0.045007855
34	0x3dc16364	0.094427854
35	0x3d5032f8	0.050829858
36	0xbe3ef581	-0.1864834
37	0x3d8e6f38	0.06954807
38	0xbd73d060	-0.059524894
39	0x3e47643a	0.19471827
40	0xbe0748fc	-0.13211435
41	0x3da483c4	0.08032945
42	0xbe41e699	-0.18935622
43	0xbd976994	-0.07393184
44	0x3dfb45c4	0.12269166
45	0xbdbe47e0	-0.09291053
46	0x3ca0d748	0.019633904
47	0x3da0fa50	0.07860243
48	0xbe08e2e5	-0.13367803
49	0xbd426794	-0.04746206
50	0xbd3237ec	-0.043510363
51	0xbe09999e	-0.13437507
52	0xbce44360	-0.027864158
53	0x3d2699e8	0.04067412
54	0xbe5592c5	-0.2085677
55	0x3e1e5f1a	0.15465966
56	0xbe41c7c3	-0.1892386
57	0xbc07b4e0	-0.00828287
58	0xbbca9920	-0.0061828047
59	0x3d251598	0.040303797
60	0x3d941c78	0.072319925
61	0xbe495778	-0.19662273
62	0x3e37727e	0.17914769
63	0xbd444880	-0.047920704
64	0xbddd3e4a	-0.10802896
65	0x3e17143a	0.1475381
66	0xbdc7139c	-0.09720537
67	0x3dde0fe0	0.10842872
68	0xbe01c1fc	-0.12671655
69	0x3d994068	0.07482988
70	0x3cfbb990	0.030728132
71	0x3d06f0e8	0.03294459
72	0x3cfcf590	0.030878812
73	0xbe2b97d2	-0.16757134
74	0xbe2f1f70	-0.17101836
75	0xbdab8e98	-0.08376807
76	0xbdfc29ed	-0.12312684
77	0xbd39ea58	-0.045389503
78	0xbe230702	-0.15920642
79	0xbdfd43e9	-0.123664685
80	0xbdafab08	-0.085775435
81	0x3d819c28	0.063286126
82	0x3e433e80	0.1906681
83	0x3cf50d90	0.029913694
84	0x3de4e488	0.111764014
85	0xbe2f2f86	-0.17107973
86	0xbca5a830	-0.0202218
87	0xbe427a82	-0.18992046
88	0x3e5e868e	0.21731016
89	0x3e0dcb4e	0.13847086
90	0xbe4c7ff1	-0.19970681
91	0x3e3fa664	0.18715817
92	0x3da31d80	0.07964611
93	0x3d9d6864	0.076859266
94	0xbd633fc0	-0.05548072
95	0x3d2ff5e8	0.042959124
96	0x3e629256	0.22126135
97	0xbd8a23c4	-0.06745103
98	0xbe4b916c	-0.19879693
99	0xbe54d45a	-0.2078413
100	0x3bd48a80	0.006486237
101	0x3e105b3a	0.140973
102	0x3e0ab01c	0.13543743
103	0xbe081aa6	-0.13291416
104	0xbe071a20	-0.1319356
105	0x3dfcc8d4	0.123429924
106	0xbdb3593e	-0.08757256
107	0xbd438134	-0.04773064
108	0x3e066fd2	0.13128594
109	0xbda2ec70	-0.07955253
110	0x3d62f570	0.05540985
111	0xbe0eed48	-0.13957703
112	0x3db0d8c8	0.08635098
113	0x3e47d95e	0.19516513
114	0x3df09ad4	0.11748281
115	0xbdebf8c6	-0.11522059
116	0x3d9d24fc	0.0767307
117	0xbe62e4ab	-0.22157542
118	0xbe1b11b8	-0.15143478
119	0x3d691650	0.056906044
120	0x3e381f78	0.17980754
121	0xbe63b8a2	-0.222384
122	0xbd92f63c	-0.07175872
123	0x3e61f3be	0.22065637
124	0x3d27a7b8	0.040931433
125	0xbdcb3f71	-0.0992421
126	0x3d7a7560	0.061147094
127	0x3dd7c4a4	0.10535553
128	0x3db60a20	0.0888865
129	0x3e052c1e	0.1300511
130	0x3d2503c8	0.04028681
131	0xbd9c1f16	-0.07623117
132	0x3d3e5258	0.046465248
133	0x3d48dbe0	0.049037814
134	0x3e23be92	0.15990666
135	0xbe00ba26	-0.1257101
136	0x3de66a1c	0.112507075
137	0x3e4e5c94	0.20152503
138	0xbd8c1482	-0.06839849
139	0xbcbabcb8	-0.022795066
140	0x3e307b6a	0.17234579
141	0x3e4c9a86	0.19980821
142	0x3e4dd4e2	0.2010074
143	0xbe09c97c	-0.13455766
144	0x3d075840	0.033043146
145	0xbdc1bea4	-0.0946019
146	0x3c632180	0.0138629675
147	0xbdf848e3	-0.12123277
148	0xbe0f1032	-0.13971022
149	0x3cf5e2a0	0.03001529
150	0x3e3f2e32	0.18669966
151	0xbe4131d7	-0.18866669
152	0x3e599be8	0.2125088
153	0xbdc55094	-0.0963451
154	0xbc81d800	-0.015850067
155	0xbdd49b1c	-0.10381147
156	0x3dcebec8	0.100949824
157	0x3e593c8e	0.21214506
158	0x3d65a6f0	0.056067407
159	0x3e5490f4	0.2075842
160	0xbe0d36e0	-0.13790464
161	0x3e2440f2	0.160404
162	0xbdfea470	-0.12433708
163	0xbdd73dd4	-0.1050984
164	0xbdababb6	-0.08382361
165	0xbd8cbdb4	-0.068721205
166	0x3dcfbad0	0.101430535
167	0x3e0dddc2	0.13854125
168	0xbe1312d6	-0.14362654
169	0x3db453f4	0.08805075
170	0xbe4f5288	-0.20246327
171	0xbe07457d	-0.13210101
172	0x3d6ef658	0.0583404
173	0x3dd3c500	0.10340309
174	0xbc157d70	-0.009124145
175	0xbe2c080d	-0.16799946
176	0xbcec4ec0	-0.028846145
177	0xbd31f20c	-0.043443725
178	0xbd39bec4	-0.045347944
179	0x3e0d5e2c	0.13805455
180	0xbda60aca	-0.081075266
181	0xbb8e5480	-0.0043435693
182	0xbe3c90c4	-0.18414599
183	0xbd383de4	-0.0449809
184	0x3e5530e2	0.20819429
185	0x3ceeb5c0	0.0291394
186	0x3c269d20	0.010169297
187	0xbe15547c	-0.1458301
188	0x3e074d48	0.13213074
189	0xbddc2e3e	-0.107510075
190	0xbd429818	-0.04750833
191	0xbe2b0b65	-0.16703565
192	0x3e0f9d50	0.14024854
193	0xbd57e7cc	-0.052711293
194	0xbdbf311c	-0.09335539
195	0xbda22cf2	-0.07918729
196	0xbe077580	-0.13228416
197	0xbdab2e18	-0.08358401
198	0x3d866c74	0.065636545
199	0x3e31e0f4	0.17370969
200	0xbdfcbcdd	-0.1234071
201	0xbda170f0	-0.07882869
202	0x3d959520	0.07303834
203	0xbd38901c	-0.04505931
204	0x3c92f0c0	0.017937064
205	0xbe5f83c5	-0.2182761
206	0x3dca7bfc	0.098869294
207	0xbd951a24	-0.072803766
208	0x3e5bb162	0.21454385
209	0x3e5fcd94	0.21855766
210	0x3e3ca25a	0.18421307
211	0xbe06bce6	-0.13157997
212	0x3db78138	0.089601934
213	0xbe21b82d	-0.15792914
214	0xbe13b98e	-0.14426252
215	0x3cb1c180	0.021698713
216	0x3d779480	0.060444355
217	0x3e358f6e	0.17730495
218	0x3e3e0554	0.1855672
219	0x3e1b3da6	0.15160236
220	0x3c0c9b70	0.008581981
221	0xbdb656a8	-0.08903247
222	0x3e39f5a4	0.1816011
223	0x3e5822fe	0.21107098
224	0xbe59e2c9	-0.21277918
225	0x3e28f714	0.16500503
226	0xbe363cfb	-0.177967
227	0xbe19c66a	-0.15017095
228	0xbba17940	-0.004927784
229	0x3cd55cd0	0.026045233
230	0x3e0b6170	0.13611388
231	0x3e01f3c8	0.12690651
232	0xbd0d5f94	-0.03451498
233	0xbe3b53be	-0.18293664
234	0x3e35ea1a	0.17765084
235	0x3da78c40	0.081810474
236	0x3d47c150	0.04876834
237	0x3e1151e8	0.14191401
238	0x3b807fe0	0.003921494
239	0xbe173c32	-0.14769056
240	0x3d01d160	0.031693816
241	0xbde66573	-0.11249819
242	0x3e51f166	0.20502242
243	0xbc2f1c40	-0.010687888
244	0xbc1aab50	-0.009440258
245	0xbe28ee12	-0.16497067
246	0xbe06b237	-0.13153921
247	0x3dcce700	0.10004997
248	0x3d4e72d8	0.050402492
249	0x3e1104cc	0.14161986
250	0x3e56f38e	0.20991346
251	0x3cce91c8	0.025215998
252	0x3d84cbc4	0.06484178
253	0x3d0797f8	0.033103913
254	0x3e3e9a0c	0.18613452
255	0xbe52a45f	-0.20570515

sentence_encoder.sent_encoder.weight_hh_l0 f4 [60, 20]
0	0x3e36d350	0.17854047
1	0xbdd0a3e1	-0.101875074
2	0x3e1709b2	0.14749792
3	0xbdf36161	-0.11883808
4	0xbe17c942	-0.14822868
5	0xbe52291e	-0.20523497
6	0xbe5d75a8	-0.21626914
7	0xbe3b4f14	-0.18291885
8	0x3e529a90	0.20566773
9	0xbe46a36f	-0.19398282
10	0x3c2a68d0	0.010400966
11	0xbca8f480	-0.0206244
12	0x3e09e4a4	0.13466126
13	0xbdf5bbee	-0.11998735
14	0x3d963a7c	0.07335374
15	0xbe538aaa	-0.20658365
16	0x3e547194	0.20746452
17	0x3e593f22	0.2121549
18	0xbd8a7af4	-0.06761733
19	0xbe145146	-0.14484128
20	0xbe459814	-0.19296294
21	0xbdab601a	-0.08367939
22	0x3e08039a	0.13282624
23	0xbd9aa5bc	-0.075511426
24	0xbd712bf4	-0.058879808
25	0xbe1a25c9	-0.15053476
26	0x3e34a9a0	0.17642832
27	0xbc0e4770	-0.008684024
28	0xbd8e29d6	-0.06941573
29	0xbe094bb0	-0.13407779
30	0x3e36aeb4	0.17840081
31	0xbe3ead81	-0.18620874
32	0xbddbdc40	-0.10735369
33	0xbe1e99df	-0.15488385
34	0xbe261c7a	-0.162218
35	0x3b93a9a0	0.004506305
36	0xbdbd5cf2	-0.092462435
37	0x3e57b312	0.21064404
38	0xbdc770e8	-0.09738332
39	0xbdd5a13c	-0.10431144
40	0xbc91b358	-0.017785713
41	0xbe5db1e6	-0.21649894
42	0x3e0fa4ce	0.14027712
43	0xbe336747	-0.17519866
44	0x3b88e660	0.0041778535
45	0xbdaf1e74	-0.0855073
46	0xbe0395a0	-0.12850046
47	0x3dfe001c	0.124023646
48	0x3deced90	0.11568749
49	0x3e2c21dc	0.16809791
50	0xbd456aa8	-0.04819742
51	0x3e5cb1c6	0.2155219
52	0xbe29bfc9	-0.16577066
53	0x3e36ff3c	0.17870802
54	0xbcf11fa8	-0.02943404
55	0x3e4bd574	0.19905645
56	0xbe1dc09c	-0.15405506
57	0xbe078ee2	-0.13238099
58	0xbd87cf88	-0.0663138
59	0x3dfb3fb8	0.12268013
60	0xbe1e0fd4	-0.15435725
61	0xbe3cbd8d	-0.18431683
62	0xbdd3fcc5	-0.10350946
63	0x3df2c518	0.11853999
64	0xbdfa3cce	-0.12218629
65	0x3d8dfa04	0.06932452
66	0xbde8f966	-0.11375694
67	0xbddb612b	-0.10711893
68	0x3df633fc	0.12021634
69	0x3e23c1f8	0.15991962
70	0xbdc79f84	-0.09747222
71	0xbe06921c	-0.13141674
72	0xbe528b52	-0.20560959
73	0x3ca74650	0.02041927
74	0xbe583156	-0.2111257
75	0xbe275455	-0.16340764
76	0x3e5910e8	0.21197855
77	0xbdb85fdc	-0.09002659
78	0xbe2e7b28	-0.17039168
79	0x3dde3c7c	0.1085138
80	0xbe3fdc24	-0.1873632
81	0xbe587300	-0.21137619
82	0xbdd5bd4f	-0.104364984
83	0x3dd29578	0.10282415
84	0xbd8cec14	-0.06880966
85	0x3cf023b0	0.029313892
86	0xbe20ee66	-0.15715942
87	0x3dc8226c	0.097721905
88	0x3e4061d2	0.18787315
89	0x3e642834	0.22280961
90	0x3de9cc50	0.11415923
91	0x3e228122	0.15869573
92	0xbe4220ce	-0.18957826
93	0xbd9aefca	-0.075652674
94	0xbe51555a	-0.20442715
95	0xbe4c23fd	-0.19935603
96	0x3dfb7148	0.12277466
97	0xbe548df4	-0.20757276
98	0xbe5df032	-0.21673658
99	0x3ddf354c	0.108988374
100	0xbe500a0b	-0.20316331
101	0xbe45ee15	-0.19329102
102	0xbe56ef31	-0.20989682
103	0x3dd50b14	0.104025036
104	0x3e2ba826	0.16763362
105	0xbde80b08	-0.11330229
106	0x3ce189e0	0.027531564
107	0x3c8eadc8	0.01741685
108	0x3e08ef04	0.13372427
109	0xbdf4f299	-0.11960334
110	0x3deb08c0	0.11476278
111	0x3e355f74	0.17712194
112	0xbd353ad4	-0.044245556
113	0x3c181140	0.0092814565
114	0x3dd862f8	0.10565752
115	0xbbd9ae60	-0.0066431016
116	0x3e268110	0.16260171
117	0xbe157db2	-0.1459873
118	0x3d477838	0.048698634
119	0xbe20d06a	-0.15704504
120	0xbd803dcc	-0.06261787
121	0xbc1d4d90	-0.009601012
122	0x3e28b5ac	0.16475552
123	0x3d86a778	0.06574911
124	0xbe055ef2	-0.130245
125	0x3dc53fd0	0.09631312
126	0x3d31e988	0.043435603
127	0x3e246b0a	0.16056457
128	0x3c31a1b0	0.010841772
129	0x3dc58f94	0.09646526
130	0x3d9cab9c	0.076499194
131	0x3df93ff8	0.12170404
132	0x3e35b2d6	0.17744002
133	0x3deaa750	0.114576936
134	0xbdcdfb99	-0.10057754
135	0xbe4c331c	-0.19941372
136	0xbdcbf14b	-0.09958132
137	0xbde17115	-0.11007897
138	0x3d61d410	0.05513388
139	0xbd9a4f9c	-0.075347155
140	0x3c8516a0	0.01624614
141	0xbe50f5c1	-0.20406248
142	0xbd9f6030	-0.07782018
143	0xbdde1d40	-0.10845423
144	0x3e105d4e	0.14098093
145	0xbd9acae2	-0.07558228
146	0x3da31148	0.079622805
147	0x3e638618	0.22219121
148	0x3da9c710	0.08289921
149	0x3e5de432	0.21669081
150	0xbb8bdce0	-0.0042682737
151	0xbe3890ef	-0.18024038
152	0x3daee2d0	0.08539355
153	0x3e1a1d46	0.1505023
154	0x3d8c86bc	0.06861636
155	0x3e3debfa	0.18547049
156	0x3e38c1c2	0.18042663
157	0x3d90af70	0.07064712
158	0xbd1b0bdc	-0.037853107
159	0xbe16f7e4	-0.14743
160	0x3e1b0e58	0.1514219
161	0x3dcff884	0.101548225
162	0x3dacc8d8	0.084367454
163	0x3e022468	0.127092
164	0xbe27a8a9	-0.16372932
165	0x3db9f64c	0.090801805
166	0xbe1b9e4a	-0.15197101
167	0x3d945f78	0.07244772
168	0x3decece8	0.11568624
169	0x3e2cd44c	0.1687786
170	0xbd33ff70	-0.043944776
171	0x3bfb52e0	0.0076697916
172	0xbdf91645	-0.12162451
173	0x3da749bc	0.081683606
174	0xbe1e5f58	-0.15466058
175	0x3d105268	0.03523484
176	0xbe2c3c3c	-0.16819853
177	0xbe64b118	-0.22333181
178	0x3cddaa20	0.027058661
179	0x3e32be24	0.17455345
180	0x3e11c58a	0.14235511
181	0x3db46174	0.0880765
182	0xbdbd3d72	-0.092402354
183	0x3e04b36c	0.12959069
184	0xbe1c30c8	-0.15252984
185	0xbe42a3f4	-0.19007856
186	0x3d5d9c50	0.05410415
187	0xbe16b6b9	-0.1471814
188	0xbe63c5be	-0.22243401
189	0x3d8eaf94	0.069670826
190	0x3e5293e2	0.20564225
191	0xbd3aeae8	-0.04563418
192	0x3dc5d048	0.09658867
193	0xbe321d36	-0.17393956
194	0xbe5a7367	-0.21333085
195	0xbcae02a0	-0.021241486
196	0x3e631ab6	0.22178158
197	0x3ca03a98	0.01955919
198	0x3dd998ac	0.10624823
199	0xbe43a7d0	-0.19106984
200	0xbe6423d8	-0.22279298
201	0xbe59044a	-0.21193042
202	0x3e0f204a	0.13977161
203	0x3e400afc	0.1875419
204	0xbe434b8a	-0.19071785
205	0xbd3d5378	-0.04622218
206	0x3d69f3e0	0.057117343
207	0x3e0e18d6	0.13876662
208	0xbcd8d6b8	-0.026469573
209	0xbe4f2962	-0.2023063
210	0xbd3fc17c	-0.04681538
211	0xbae2d87b	-0.0017306948
212	0x3e298328	0.16553938
213	0x3ddba838	0.107254446
214	0xbe2aaf92	-0.16668537
215	0xbe391717	-0.18075214
216	0xbdcc0c39	-0.09963269
217	0x3d9490b0	0.072541595
218	0xbdfe89bb	-0.12428614
219	0x3e4291a2	0.19000867
220	0xbe4fd849	-0.2029735
221	0xbe3d926c	-0.18512887
222	0xbe03e372	-0.12879732
223	0xbd6ae41c	-0.05734645
224	0xbd1a5b20	-0.03768456
225	0xbcb3b890	-0.021938592
226	0x3e5a9a1e	0.21347854
227	0xbe588c23	-0.21147208
228	0x3c630470	0.013856038
229	0xbc3a2750	-0.011361912
230	0x3e3a8208	0.18213665
231	0xbdfde5f4	-0.12397376
232	0xbdfd3f41	-0.1236558
233	0xbd72def4	-0.059294656
234	0xbe63fb87	-0.22263919
235	0x3d176e98	0.036970705
236	0xbe4b61ff	-0.19861601
237	0xbd24f0b4	-0.040268615
238	0xbe648213	-0.22315244
239	0xbd34beac	-0.04412715
240	0xbe420020	-0.1894536
241	0x3c888280	0.01666379
242	0xbddb3f47	-0.107054286
243	0x3c7a5320	0.015278608
244	0x3daf7678	0.08567518
245	0x3dd91a10	0.10600674
246	0xbd0ae908	-0.033913642
247	0x3dc33a34	0.09532586
248	0xbdabd710	-0.08390629
249	0xbe47a19b	-0.19495241
250	0xbcef17c8	-0.029186144
251	0xbdc1f9aa	-0.09471448
252	0xbdd36571	-0.10322083
253	0x3e1730c0	0.1476469
254	0x3e11fd44	0.1425677
255	0xbe51b1c6	-0.20477971

sentence_encoder.sent_encoder.bias_ih_l0 f4 [60]
0	0x3e4cb786	0.19991884
1	0x3e516f8a	0.20452705
2	0x3d9333f0	0.07187641
3	0xbe319145	-0.17340572
4	0xbe604ca5	-0.21904238
5	0xbe4661f6	-0.19373307
6	0x3c49cfd0	0.012317613
7	0xbe10fbfc	-0.14158624
8	0xbc43b700	-0.011945486
9	0x3e5b44f8	0.21413028
10	0xbbe34240	-0.006935388
11	0xbca47918	-0.020077273
12	0x3e282dd4	0.16423732
13	0xbb9fc540	-0.004875809
14	0xbda82832	-0.08210792
15	0x3db3a214	0.08771148
16	0x3c2e6170	0.010643348
17	0xbbd7fb80	-0.0065912604
18	0xba0a7a6e	-0.00052825257
19	0xbe1738b9	-0.14767732
20	0xbe2d0f2a	-0.16900316
21	0x3e48f4da	0.19624653
22	0xbe060b58	-0.13090265
23	0xbe49a3b1	-0.1969135
24	0xbdc62774	-0.09675494
25	0x3d907814	0.07054153
26	0x3e1d56f6	0.15365204
27	0xbe42e3ba	-0.19032183
28	0xbd38285c	-0.044960365
29	0x3e3714cc	0.17879027
30	0x3d0a1e20	0.033720136
31	0xbcebb630	-0.028773397
32	0xbda523e2	-0.08063485
33	0x3e0b371e	0.13595244
34	0xbc5376a0	-0.0129067
35	0x3e0f42c8	0.13990319
36	0x3e5fd11c	0.21857113
37	0x3dbc97e0	0.09208655
38	0x3d508168	0.05090466
39	0x3de88604	0.113536865
40	0xbe594403	-0.2121735
41	0xbd2a58b8	-0.041588515
42	0xbe54551d	-0.20735593
43	0xbd0d217c	-0.03445576
44	0xbe4ab819	-0.1979679
45	0xbc44e300	-0.012017012
46	0xbe24ee9a	-0.16106644
47	0xbd8d7722	-0.069074884
48	0xbe4cbca1	-0.19993831
49	0xbdbedb38	-0.093191564
50	0x3cf30a30	0.029667944
51	0x3e285260	0.16437674
52	0x3cddf220	0.027092993
53	0xbe091680	-0.1338749
54	0x3e3f393e	0.1867418
55	0xbbe835a0	-0.0070864707
56	0x3e467f08	0.19384396
57	0x3e42aa58	0.19010293
58	0x3c94a740	0.018146157
59	0xbd44e774	-0.048072293

sentence_encoder.sent_encoder.bias_hh_l0 f4 [60]
0	0xbd9ccf6e	-0.076567516
1	0xbe24ee28	-0.16106474
2	0x3d0cf3c0	0.034412146
3	0x3e263130	0.16229701
4	0x3d2fb6a8	0.042898804
5	0xbe278556	-0.16359457
6	0x3e51f5d4	0.20503932
7	0xbe56bd0f	-0.20970558
8	0x3d20c9a8	0.039254814
9	0xbe62453a	-0.2209672
10	0xbd1c5550	-0.038167298
11	0xbd913c98	-0.070916355
12	0x3da5743c	0.080788106
13	0x3e38bc90	0.18040681
14	0xbdf2c0f1	-0.11853207
15	0x3d8e6550	0.069529176
16	0xbe04e76c	-0.12978905
17	0x3ce73630	0.02822408
18	0xbbb7b500	-0.0056062937
19	0x3ca531b0	0.020165294
20	0xbe61acf6	-0.22038636
21	0x3d9c2ee0	0.07626128
22	0x3dd4ed58	0.10396832
23	0xbe014f0b	-0.12627809
24	0x3df36b74	0.118857294
25	0xbe56f5ef	-0.20992254
26	0x3e2b5a22	0.16733602
27	0x3e12b13c	0.14325422
28	0x3cb39648	0.021922246
29	0xbde2fcfe	-0.11083411
30	0xbdf6b61a	-0.12046452
31	0xbe3a584a	-0.18197742
32	0xbde910b5	-0.1138014
33	0xbe573728	-0.21017134
34	0xbdce7597	-0.10081022
35	0x3e60916a	0.21930471
36	0xbde2d01e	-0.110748515
37	0x3dfc377c	0.1231527
38	0x3d1c1250	0.0381034
39	0x3d00ca50	0.03144294
40	0x3de914c4	0.11380914
41	0x3e08b39e	0.13349769
42	0xbe133abe	-0.14377877
43	0xbe2c81fa	-0.16846457
44	0xbd5f6698	-0.0545412
45	0x3db6e574	0.089304835
46	0xbe1674f4	-0.14693052
47	0xbdd003c7	-0.101569705
48	0x3c4937f0	0.012281403
49	0x3e27b4c8	0.16377556
50	0xbd01e3ac	-0.031711265
51	0xbe0491e4	-0.12946278
52	0xbe3f4f57	-0.1868261
53	0x3e4610c4	0.19342333
54	0xbe445db3	-0.19176368
55	0xbcaa1c70	-0.020765513
56	0x3e124c8e	0.14287016
57	0x3e266a34	0.16251451
58	0x3e4618fc	0.19345468
59	0x3e277ad4	0.16355449

sentence_encoder.sent_encoder.weight_ih_l0_reverse f4 [60, 30]
0	0xbd5244c0	-0.051335096
1	0x3d97d1a8	0.07413036
2	0xbe3432d1	-0.1759751
3	0xbe63c801	-0.22244264
4	0xbe4d48d1	-0.20047309
5	0x3d986cd0	0.07442629
6	0x3d855a34	0.065113455
7	0xbda51ad8	-0.08061761
8	0xbe2d3550	-0.16914868
9	0x3e529da6	0.2056795
10	0x3e54ba06	0.20774087
11	0xbcb8ebf8	-0.022573456
12	0xbd41f57c	-0.047353253
13	0x3dae67f8	0.08515924
14	0xbe166ca2	-0.14689878
15	0xbdf1180c	-0.11772165
16	0xbe588f26	-0.21148357
17	0x3dd46540	0.103708744
18	0x3e2cd49a	0.16877976
19	0x39eaa654	0.00044755882
20	0x3dd85a24	0.10564068
21	0xbc3d53b0	-0.011555597
22	0xbc8a3018	-0.016868636
23	0x3dc3f9d8	0.09569138
24	0x3e33c3d4	0.17555171
25	0x3bac5900	0.005259633
26	0x3e29d76e	0.16586086
27	0x3dd1f330	0.102514625
28	0xbe63ae5c	-0.22234482
29	0xbce12438	-0.02748309
30	0xbd5d9210	-0.054094374
31	0xbe2a2a7b	-0.16617768
32	0x3ddfbe50	0.10924971
33	0x3dc3d6f4	0.095624834
34	0x3db7ff90	0.089842916
35	0xbda8354e	-0.08213292
36	0x3e34fb98	0.176741
37	0xbda60368	-0.081061184
38	0x3e43a8b8	0.1910733
39	0x3e0d9b92	0.13828877
40	0xbe4b99c6	-0.19882879
41	0xbe3c6c8b	-0.18400781
42	0x3e42f160	0.1903739
43	0xbc331230	-0.010929629
44	0x3e040748	0.12893403
45	0x3e350930	0.17679286
46	0xbe47f18d	-0.19525738
47	0x3dca5208	0.098789275
48	0xbd1303d0	-0.035892308
49	0xbdd2c0e5	-0.10290698
50	0xbe1faa73	-0.15592365
51	0xbddb2081	-0.10699559
52	0x3dfeb5a0	0.12436986
53	0xbe501972	-0.20322207
54	0x3dd2a5b0	0.10285509
55	0x3e094624	0.13405663
56	0x3dda7e94	0.10668674
57	0xbe4a27b6	-0.19741711
58	0x3d3166f8	0.04331109
59	0xbd0bffd8	-0.03417954
60	0x3cfb0f20	0.03064686
61	0x3e4fdcb2	0.20299032
62	0xbcebda50	-0.028790623
63	0xbe11afd3	-0.14227228
64	0x3db69df8	0.08916849
65	0xbdbd57fc	-0.09245297
66	0xbde32b2b	-0.11092218
67	0xbe2e22e0	-0.17005491
68	0x3e60218a	0.21887794
69	0xbdc96082	-0.098328605
70	0x3dbd856c	0.09253964
71	0xbd4dd320	-0.050250173
72	0xbe39697a	-0.18106642
73	0x3ca052e8	0.019570783
74	0x3e3a0fd8	0.18170106
75	0x3cd85540	0.026407838
76	0x3cb96088	0.022629037
77	0x3e319c26	0.17344722
78	0x3e0dac4c	0.13835257
79	0xbd30725c	-0.04307781
80	0x3e181b94	0.1485427
81	0xbe16da9e	-0.14731833
82	0x3e3cb7e2	0.1842952
83	0x3e347d3e	0.17625901
84	0xbe1ef2b0	-0.15522265
85	0xbdf6766b	-0.12034305
86	0x3da4f6a8	0.080548584
87	0x3e03bb66	0.12864456
88	0x3de65e94	0.11248508
89	0x3dea01d8	0.11426133
90	0x3cb264b8	0.021776542
91	0x3e3a93b4	0.18220407
92	0xbe53523a	-0.20636836
93	0xbdbbf1ba	-0.09176965
94	0xbe444daa	-0.19170251
95	0xbc421060	-0.011844724
96	0xbdda7fa5	-0.106688775
97	0x3e470a88	0.19437611
98	0xbdf9c0d7	-0.121949844
99	0xbc044870	-0.008073911
100	0x3e5d87fa	0.21633902
101	0xbc84ebf0	-0.016225785
102	0x3e5463a2	0.20741132
103	0x3e0f5dac	0.14000577
104	0x3d772ce0	0.06034553
105	0xbdfec7be	-0.124404415
106	0x3df097bc	0.11747691
107	0xbdb01b84	-0.08598998
108	0x3e382ac2	0.17985061
109	0xbe3b506a	-0.18292394
110	0x3d2395e0	0.039937854
111	0x3d021358	0.03175673
112	0x3d4468f8	0.04795167
113	0x3e3c2584	0.18373686
114	0xbcd15548	-0.02555336
115	0xbe3b04fc	-0.1826362
116	0x3e454d00	0.19267654
117	0x3db11b20	0.08647752
118	0xbe178e04	-0.14800268
119	0x3e49b3c6	0.19697484
120	0x3def5634	0.11686364
121	0xbdf865ce	-0.12128793
122	0x3dade0f4	0.08490172
123	0x3e26e23a	0.16297236
124	0x3e4ce252	0.2000821
125	0x3e059b02	0.13047412
126	0xbe17be94	-0.14818794
127	0xbe3e3a16	-0.18576846
128	0x3e64788e	0.22311613
129	0xbbd398c0	-0.006457418
130	0x3e182406	0.14857492
131	0xbe5d5c94	-0.21617347
132	0xbe4c48b0	-0.19949603
133	0xbe4cdf2a	-0.20007005
134	0xbe4964a6	-0.196673
135	0x3da62294	0.08112064
136	0x3db2397c	0.087023705
137	0x3dfad860	0.122483015
138	0xbe22c722	-0.15896276
139	0x3e52b36a	0.20576254
140	0xbd12b790	-0.03581959
141	0x3e15e164	0.14636761
142	0x3da4a198	0.08038634
143	0x3e40b02c	0.18817204
144	0xbe2a431a	-0.1662716
145	0x3ca26760	0.019824684
146	0xbe592d15	-0.21208604
147	0x3cc7c700	0.024386883
148	0x3e5ae5ce	0.21376726
149	0x3e480b90	0.1953566
150	0x3e00106c	0.12506264
151	0xbc428030	-0.011871383
152	0xbe033624	-0.12813622
153	0xbd1bcc28	-0.038036495
154	0x3d3c7530	0.046010196
155	0xbe2f7f1d	-0.17138334
156	0xbd9032a6	-0.070409104
157	0x3dce8fcc	0.10086021
158	0xbdd442e9	-0.103643246
159	0xbc8e2670	-0.017352313
160	0xbe55a749	-0.20864595
161	0xbe589af8	-0.21152866
162	0x3e2a51ee	0.16632816
163	0x3d5c1090	0.053726733
164	0xbe05f232	-0.13080671
165	0x3cf0cc70	0.029394358
166	0xbe5802ee	-0.21094868
167	0xbdb3f494	-0.08786884
168	0xbd26ab48	-0.04069069
169	0x3cbe90c0	0.023262382
170	0x3e5c4e00	0.2151413
171	0xbcee3f90	-0.029083043
172	0x3d16c0d8	0.036805004
173	0x3ce53ab0	0.027982086
174	0x3e54759a	0.20747986
175	0x3e1434e6	0.14473304
176	0x3b56ab80	0.003275603
177	0xbe5c72fb	-0.21528237
178	0xbe538b6a	-0.20658651
179	0xbdabebd0	-0.08394587
180	0xbd96cc10	-0.073631406
181	0x3e266778	0.16250408
182	0x3d4e70c8	0.050400525
183	0x3e398e24	0.18120629
184	0xbd96cf24	-0.07363728
185	0xbe6106c3	-0.21975236
186	0xbe54ad96	-0.20769343
187	0xbd48fedc	-0.049071178
188	0xbd968f86	-0.07351594
189	0x3e233aea	0.15940443
190	0xbe0a879c	-0.13528293
191	0x3d1cc768	0.038276106
192	0x3cfa51b0	0.03055653
193	0xbd4f8890	-0.050667346
194	0xbdb4d140	-0.08828974
195	0x3e1a2c4e	0.15055963
196	0xbd9836b6	-0.0743231
197	0x3dfdf5b0	0.12400377
198	0xbe1dbfdd	-0.15405221
199	0xbd8f595a	-0.06999464
200	0x3e0feb62	0.14054635
201	0xbd4021c8	-0.046907216
202	0x3e490b9a	0.19633332
203	0x3cb13a18	0.021634147
204	0x3e086d8e	0.13323042
205	0x3d855904	0.06511119
206	0x3e08ae98	0.13347852
207	0xbe0fb6cc	-0.14034575
208	0x3e0c5cdc	0.13707298
209	0xbe088b74	-0.13334447
210	0x3c934668	0.017977908
211	0xbe2a1ced	-0.16612597
212	0xbc2f1690	-0.010686532
213	0xbe4953e2	-0.19660905
214	0xbd87453a	-0.06605001
215	0xbdb61a10	-0.0889169
216	0x3deb985c	0.115036696
217	0x3e05619a	0.13025513
218	0xbe5a0abc	-0.21293157
219	0xbe2dfd49	-0.16991152
220	0xbe05c9be	-0.1306524
221	0x3dad0368	0.08447915
222	0x3e53e5ea	0.20693174
223	0x3e21f7f0	0.15817237
224	0x3aef351d	0.0018250082
225	0x3d7ff1a8	0.06248632
226	0xbe25f425	-0.16206415
227	0x3e0e9360	0.13923407
228	0x3e1b2ebc	0.15154546
229	0x3dfdefb4	0.12399235
230	0xbe098fd2	-0.1343377
231	0xbd829852	-0.06376709
232	0x3cab6aa8	0.020924881
233	0x3e55bad8	0.20872056
234	0xbe0938c1	-0.13400556
235	0x3e177e32	0.14794233
236	0xbe201dea	-0.15636411
237	0x3e43ca88	0.19120228
238	0x3e3aafac	0.18231076
239	0xbe04b1b0	-0.12958407
240	0x3d7c4430	0.061588466
241	0x3d95c7dc	0.07313511
242	0xbe50509f	-0.20343255
243	0xbe43062c	-0.19045323
244	0xbcd9a8a0	-0.026569664
245	0xbe361c5a	-0.17784253
246	0x3dd10280	0.10205555
247	0x3d576e78	0.052595586
248	0xbd26b604	-0.040700927
249	0x3e53ffda	0.20703068
250	0x3e0fec06	0.1405488
251	0x3e3f0e7e	0.18657872
252	0xbe1b9164	-0.15192181
253	0xbe0b4f10	-0.13604379
254	0x3e1e5e8e	0.15465757
255	0x3d9fd050	0.07803404

sentence_encoder.sent_encoder.weight_hh_l0_reverse f4 [60, 20]
0	0xbde9b4a4	-0.114114076
1	0xbe42807f	-0.1899433
2	0xbc8cb9c8	-0.017178431
3	0x3dbc2518	0.091867626
4	0xbdb0f3ee	-0.08640276
5	0x3e4fb8ea	0.20285383
6	0x3e200ab0	0.15629077
7	0x3e31cfb2	0.17364386
8	0x3c2a76e0	0.010404319
9	0x3e18e4d8	0.14931047
10	0x3d775a30	0.060388744
11	0xbe643a65	-0.22287901
12	0xbdfc9b5d	-0.12334321
13	0xbd6e0f78	-0.05812022
14	0xbd8b0e7c	-0.06789872
15	0x3df8f148	0.12155396
16	0xbca662d0	-0.02031079
17	0x3daefdac	0.08544478
18	0x3d1d08b0	0.038338363
19	0xbd92b94a	-0.07164247
20	0xbd2944a8	-0.04132524
21	0xbe16ad75	-0.14714606
22	0xbd23216c	-0.039826795
23	0xbd8b570a	-0.06803711
24	0x3db15790	0.08659279
25	0xbe17d848	-0.14828598
26	0x3dcde640	0.10053682
27	0x3e2a8f6e	0.16656277
28	0xbdafcb50	-0.08583701
29	0x3e63e810	0.22256494
30	0xbe34fa1e	-0.17673537
31	0xbdf5e044	-0.12005666
32	0xbdb71eca	-0.089414194
33	0xbe097fe7	-0.13427697
34	0xbe2efb73	-0.17088108
35	0x3ce508c0	0.027958274
36	0x3d6a72b8	0.05723831
37	0xbdad0e2a	-0.08449967
38	0x3dd40a38	0.103535116
39	0x3d1cf270	0.038317144
40	0x3e007188	0.12543309
41	0x3d939684	0.07206443
42	0xbcb91340	-0.022592187
43	0x3cdb3940	0.026760697
44	0xbdfb4c03	-0.122703575
45	0xbe23cbe4	-0.15995747
46	0x3e4d4f24	0.20049721
47	0x3d20a9e8	0.039224535
48	0xbe49e2f4	-0.19715482
49	0xbdabe2ec	-0.08392891
50	0x3ce06950	0.027393967
51	0xbdf3150b	-0.11869248
52	0x3e0a76ba	0.13521853
53	0xbe3d7ffc	-0.18505853
54	0xbe56c490	-0.2097342
55	0x3e3d6884	0.18496901
56	0x3e54fc52	0.20799378
57	0xbe4d9127	-0.20074902
58	0x3deee228	0.1166423
59	0x3d84ba54	0.06480852
60	0x3d00a0b0	0.031403244
61	0xbc8b5210	-0.017006904
62	0x3c628ab0	0.013827011
63	0x3d04f180	0.032456875
64	0xbd5ae7c8	-0.0534437
65	0x3e0e5858	0.13900888
66	0x3dbbbbc8	0.09166676
67	0x3e14d9e0	0.14536238
68	0x3d92b11c	0.07162687
69	0x3cd0f918	0.025509402
70	0xbdeff23a	-0.11716123
71	0xbe2cc6cd	-0.16872711
72	0x3e3ac670	0.1823976
73	0xbdf31561	-0.11869312
74	0xbddc0422	-0.10742976
75	0x3aa59bbb	0.0012634912
76	0xbcb47be0	-0.022031724
77	0xbdda6e18	-0.1066553
78	0xbe4dca30	-0.2009666
79	0xb9d7d561	-0.00041166975
80	0x3d5a7da8	0.05334249
81	0xbcfe8200	-0.031067848
82	0xbe467190	-0.19379258
83	0x3dcfb608	0.101421416
84	0xbe27a519	-0.16371574
85	0x3dc6e0c4	0.097108394
86	0xbe47f2ea	-0.19526258
87	0xbd22642c	-0.039646313
88	0x3c316700	0.01082778
89	0x3e60bb14	0.21946365
90	0x3e608360	0.21925116
91	0xbd21d7cc	-0.03951244
92	0x3e5cc7d4	0.21560603
93	0x3de91314	0.11380592
94	0xbe04bd0b	-0.12962739
95	0x3db4cf70	0.08828628
96	0x3de90980	0.11378765
97	0xbdc9dc26	-0.09856443
98	0xbd3218f4	-0.04348083
99	0x3d9a0038	0.07519573
100	0xbdaa392a	-0.083116844
101	0x3d961be0	0.073295355
102	0x3e15e0f2	0.14636591
103	0x3d87fd70	0.06640136
104	0x3e29a946	0.16568479
105	0xbe427506	-0.18989953
106	0xbcc02bc8	-0.023458377
107	0x3d73b458	0.05949816
108	0x3c9cdf00	0.019149303
109	0x3e599384	0.21247679
110	0xbd8d2f6a	-0.06893809
111	0x3d1b8800	0.037971497
112	0xbe5557a3	-0.20834212
113	0x3d01d628	0.031698376
114	0xbe4c37d6	-0.19943175
115	0x3e494fe0	0.19659376
116	0x3e0838ce	0.1330292
117	0xbdd6e744	-0.10493329
118	0x3e538ede	0.20659968
119	0xbe0d87b7	-0.13821302
120	0xbd77276c	-0.06034033
121	0x3da5cd08	0.08095747
122	0xbe10291c	-0.14078182
123	0x3d207960	0.039178252
124	0x3db902b0	0.09033716
125	0x3e27a1d6	0.1637033
126	0xbcaa9928	-0.020824984
127	0x3dbf1da4	0.093318254
128	0xbd8eb3ce	-0.06967889
129	0x3e4095ec	0.1880719
130	0x3d437e80	0.04772806
131	0x3e4f6b9c	0.20255893
132	0x3e2f88f4	0.17142087
133	0x3e07e9ec	0.13272828
134	0xbd826f38	-0.063688695
135	0x3cd62648	0.0261413
136	0x3dba3908	0.09092909
137	0xbcb33f88	-0.02188088
138	0xbd58a9a4	-0.052896157
139	0xbd0fa048	-0.035064965
140	0xbe19ef4f	-0.15032695
141	0x3cd6d880	0.026226282
142	0x3e0e394c	0.13889045
143	0xbe632763	-0.22182994
144	0x3da61254	0.081089646
145	0xbdac972a	-0.0842727
146	0xbc5178a0	-0.012785107
147	0x3d54d3f8	0.05195996
148	0xbd5edc84	-0.05440952
149	0xbe0e941d	-0.13923688
150	0x3cdf7780	0.027278662
151	0x3d3876a0	0.045035005
152	0x3dd7386c	0.105088085
153	0xbae82a35	-0.0017712774
154	0x3e306a4a	0.17228046
155	0xbe3aed6d	-0.18254633
156	0x3e605252	0.21906403
157	0x3d66c160	0.05633676
158	0xbe27c8de	-0.16385219
159	0x3d927134	0.07150498
160	0xbcce5430	-0.025186628
161	0x3e41f7ec	0.18942231
162	0xbd26dc80	-0.04073763
163	0x3cb9d438	0.022684202
164	0xbe3a54ff	-0.18196486
165	0xbd287160	-0.041123748
166	0xbe604e5c	-0.21904892
167	0xbe122f91	-0.14275958
168	0xbe499d72	-0.19688967
169	0x3e43ff42	0.19140342
170	0xbe422b71	-0.18961884
171	0xbcc58868	-0.024112895
172	0x3dc0e310	0.09418309
173	0xbd13ce34	-0.036085322
174	0x3e3c8ab2	0.18412283
175	0x3da9dbb4	0.08293858
176	0x3e2f13d2	0.17097405
177	0x3d937c8c	0.0720149
178	0x3ce7b390	0.028283864
179	0xbb73eb00	-0.0037218928
180	0x3d741540	0.059590578
181	0x3dc38fc4	0.095489055
182	0xbe223b8a	-0.15843025
183	0x3e648254	0.22315341
184	0xbe6347ab	-0.22195308
185	0xbe1f058a	-0.15529457
186	0x3e50d9a2	0.2039552
187	0xbe0cfecc	-0.13769072
188	0x3c786350	0.015160397
189	0x3dc24920	0.09486604
190	0xbd077548	-0.033070832
191	0x3d07d9f8	0.033166856
192	0x3e228a14	0.15872985
193	0x3d736470	0.059421957
194	0x3e51f112	0.20502117
195	0x3e37a5c8	0.17934334
196	0xbe1070f4	-0.14105588
197	0xbe52ef61	-0.20599128
198	0xbc82ae98	-0.015952393
199	0xbdfe6bd6	-0.12422912
200	0x3ddc7d8c	0.10766134
201	0x3dbc33d4	0.09189573
202	0x3d695278	0.056963414
203	0x3c9e6d90	0.019339353
204	0x3d252ba8	0.040324837
205	0xbddc3fec	-0.1075438
206	0xbdc1c7fa	-0.094619706
207	0x3e4f885a	0.20266858
208	0xbd70a020	-0.058746457
209	0xbd4fb720	-0.05071175
210	0xbd8b33a8	-0.06796962
211	0xbe1ab708	-0.15108883
212	0xbe07fc04	-0.1327973
213	0xbe01fdd4	-0.12694484
214	0x3e442504	0.19154745
215	0xbe19aee7	-0.15008126
216	0xbd73e67c	-0.05954598
217	0x3e3a5886	0.18197832
218	0x3af42ba8	0.0018628733
219	0x3dd54c64	0.10414961
220	0xbbedae80	-0.007253468
221	0xbe51fdbc	-0.20506948
222	0x3e04cb4a	0.12968174
223	0x3e43055a	0.1904501
224	0x3e4558d4	0.19272166
225	0xbe38745c	-0.18013138
226	0x3e159246	0.1460658
227	0xbd2b4288	-0.041811496
228	0x3db5a3d4	0.08869138
229	0xbe2ad49b	-0.16682665
230	0x3ddb16f4	0.10697737
231	0x3d6fab18	0.058512777
232	0xbe0da7e1	-0.13833572
233	0xbde9074a	-0.113783434
234	0x3ca36f40	0.01995051
235	0xbe5bd448	-0.21467698
236	0x3e2d04d8	0.16896379
237	0xbd25e454	-0.040500954
238	0xbdde5058	-0.10855168
239	0x3d8377f4	0.064193636
240	0xbcdf1eb0	-0.027236313
241	0x3e1ff604	0.15621191
242	0x3e0fd498	0.14045942
243	0x3df0694c	0.11738834
244	0x3c571e00	0.013129711
245	0xbce83158	-0.028343841
246	0x3e324636	0.17409596
247	0xbd3f0018	-0.04663095
248	0x3e106078	0.140993
249	0x3e60c836	0.21951374
250	0xbe5dae2f	-0.21648477
251	0xbe0e95ca	-0.13924327
252	0xbdab4ca6	-0.08364229
253	0xbe348c9f	-0.17631768
254	0xbe2ad11a	-0.16681328
255	0xbd6bebac	-0.0575978

sentence_encoder.sent_encoder.bias_ih_l0_reverse f4 [60]
0	0xbda91542	-0.08256008
1	0xbe0a4d3e	-0.13506028
2	0xbdb9dd7c	-0.09075448
3	0xbe25cac5	-0.16190632
4	0x3e376e2a	0.17913118
5	0x3df69b44	0.12041333
6	0x3e38b5cc	0.180381
7	0x3e415202	0.1887894
8	0xbdfd288f	-0.123612516
9	0xbddcb090	-0.10775864
10	0x3df1cc64	0.118065625
11	0xbe0e89d9	-0.13919772
12	0xbe193598	-0.1496185
13	0x3d30d918	0.043175787
14	0x3d196698	0.037451357
15	0x3e3aab80	0.18229485
16	0xbe43212f	-0.19055627
17	0x3db181ec	0.08667359
18	0x3e266080	0.1624775
19	0xbd21c2b8	-0.03949234
20	0xbc848088	-0.01617457
21	0xbe32c120	-0.17456484
22	0xbe26660f	-0.1624987
23	0x3e3d2dbc	0.18474478
24	0xbe2971a8	-0.16547263
25	0xbd08e3e0	-0.033420444
26	0xbc6550a0	-0.013996273
27	0x3e51d5f0	0.20491767
28	0xbdad6104	-0.0846577
29	0xbd9c87c6	-0.07643084
30	0x3dd7ad64	0.105311185
31	0xbdb98888	-0.090592444
32	0xbbba2180	-0.005680263
33	0x3e1b5372	0.1516855
34	0xbc998fe8	-0.018745378
35	0x3ddf0738	0.10890049
36	0xbdd36ab2	-0.10323085
37	0x3dda0054	0.10644594
38	0x3d3ec340	0.046572924
39	0xbca39708	-0.019969478
40	0xbe5912d5	-0.2119859
41	0x3e35c6ee	0.17751667
42	0x3cb5a720	0.022174418
43	0x3e31a1da	0.17346898
44	0xbddc88ee	-0.10768305
45	0x3c573370	0.013134822
46	0x3a004d05	0.00048942893
47	0xbe3fa73e	-0.18716142
48	0xbe450add	-0.19242425
49	0xbe38d084	-0.18048292
50	0x3dff3240	0.12460756
51	0xbe4c3fb6	-0.19946179
52	0xbe12b20c	-0.14325732
53	0xbd3d7f28	-0.046263844
54	0xbcec0a50	-0.028813511
55	0xbe41b61e	-0.18917128
56	0xbcdddf78	-0.027084097
57	0x3b21a940	0.0024667531
58	0x3e494b20	0.19657564
59	0x3e0d6374	0.1380747

sentence_encoder.sent_encoder.bias_hh_l0_reverse f4 [60]
0	0x3dcd549c	0.100259036
1	0x3cbd08f8	0.023075566
2	0xbd0ddb10	-0.034632742
3	0x3e37aba8	0.17936575
4	0x3dd9ea64	0.106404096
5	0x3de9186c	0.11381611
6	0x3dd8a834	0.10578957
7	0x3e3f6d72	0.18694094
8	0x3e09d548	0.13460267
9	0x3be72060	0.00705342
10	0x3e07c52c	0.13258809
11	0xbddeeda4	-0.1088517
12	0xbd1da608	-0.038488418
13	0xbe39337a	-0.18086043
14	0xbcd66870	-0.026172847
15	0x3dd80a68	0.1054886
16	0xbe2b7d73	-0.16747074
17	0xbdd9c076	-0.10632412
18	0x3d1b8cc0	0.037976027
19	0x3d8d95c4	0.06913331
20	0xbcceb758	-0.02523391
21	0x3e1533ba	0.14570513
22	0xbe35e60a	-0.17763534
23	0x3e275fca	0.16345134
24	0xbe537270	-0.20649123
25	0x3e058e0c	0.13042468
26	0x3d0d2cb8	0.034466475
27	0x3e21c6d4	0.15798503
28	0xbe4eb326	-0.20185527
29	0x3dc49144	0.0959802
30	0xbd4a724c	-0.04942541
31	0xbe354077	-0.17700373
32	0x3d8340f4	0.06408873
33	0x3e3ef4aa	0.1864802
34	0x3e0bcc0e	0.1365206
35	0x3da4b868	0.08042985
36	0x3d176660	0.036962867
37	0x3e2f9e3c	0.17150205
38	0xbcb2c5a8	-0.021822765
39	0x3c8a0140	0.0168463
40	0xbe20d200	-0.15705109
41	0xbe632a4b	-0.22184102
42	0xbe48ec13	-0.19621305
43	0x3df6acac	0.12044653
44	0x3dc6ac10	0.09700787
45	0xbd902f72	-0.070402995
46	0x3d7fe9c8	0.06247881
47	0x3e1155c8	0.14192879
48	0xbe4f3e51	-0.20238616
49	0x3de8f364	0.11374548
50	0xbe066536	-0.13124546
51	0x3e2702c2	0.16309646
52	0xbcba3380	-0.022729635
53	0xbdb0a26c	-0.086247295
54	0xbde01da9	-0.10943157
55	0x3be8ac60	0.007100627
56	0xbe553bc9	-0.20823587
57	0xbd8fdd28	-0.07024604
58	0xbe224444	-0.15846354
59	0x3e58cc80	0.2117176

document_encoder.doc_encoder.weight_ih_l0 f4 [120, 40]
0	0x3dd2ee8a	0.10299404
1	0xbe04834a	-0.12940708
2	0x3d048fec	0.032363817
3	0x3e0d97cb	0.13827436
4	0x3dd3823e	0.10327576
5	0xbe1edefa	-0.15514746
6	0xbdb12083	-0.08648779
7	0x3d9a96ee	0.07548319
8	0x3d07aed0	0.0331257
9	0x3dc26efa	0.09493823
10	0xbc17cd90	-0.0092653185
11	0x3e15f805	0.14645393
12	0x3d9feeb0	0.07809198
13	0x3d897b10	0.067129254
14	0xbe1a7ecb	-0.1508743
15	0x3e1a4093	0.15063696
16	0xbddac8d6	-0.10682838
17	0x3e199515	0.14998277
18	0x3cf46fa8	0.029838398
19	0xbd190fce	-0.03736859
20	0x3e18e583	0.14931302
21	0x3e043ae5	0.12913091
22	0xbc1d8c00	-0.009615898
23	0xbcadcba8	-0.021215275
24	0x3dc81bba	0.097709134
25	0x3d6a5c08	0.057216674
26	0x3dd95c26	0.10613279
27	0xbdc66e49	-0.09689004
28	0xbe15cbca	-0.1462852
29	0xbc60eb60	-0.013727993
30	0xbe05929a	-0.13044205
31	0xbd042564	-0.03226222
32	0x3e0130a5	0.12616213
33	0x3de8565a	0.11344595
34	0xbd9d4bfd	-0.07680509
35	0x3df6cb0a	0.120504454
36	0xbe0d2425	-0.1378332
37	0xbdfa7266	-0.12228851
38	0xbe0cd64c	-0.13753623
39	0xbe21a5bf	-0.15785883
40	0xbe1cc30f	-0.15308784
41	0xbdfdd128	-0.12393409
42	0x3d988a8e	0.07448302
43	0xbdba3d8b	-0.0909377
44	0xbafc2703	-0.0019237701
45	0xbd34cd4a	-0.04414109
46	0x3ddb5832	0.10710181
47	0xbd3130b2	-0.04325933
48	0xbd94ccfe	-0.07265662
49	0x3d50082c	0.050789043
50	0x3e08d225	0.13361414
51	0x3c766aa0	0.01504007
52	0xbe05efa0	-0.13079691
53	0x3dc2c45e	0.0951011
54	0x3d87b3ce	0.06626092
55	0xbdc1fbb2	-0.09471835
56	0x3d8fa862	0.07014538
57	0xbdb63feb	-0.0889891
58	0x3d8b5fa8	0.06805354
59	0xbcb5aaa8	-0.022176102
60	0x3da8ef36	0.08248751
61	0x3e03d119	0.12872733
62	0x3dcb353e	0.099222645
63	0x3e097bd9	0.1342615
64	0xbe16e349	-0.1473514
65	0x3e0a7da7	0.13524495
66	0xbe0d6402	-0.13807681
67	0x3dd6e286	0.10492425
68	0xbdd3600c	-0.10321054
69	0x3d946da6	0.07247476
70	0xbdf131b4	-0.11777058
71	0xbe16feaa	-0.14745584
72	0x3dc5ada2	0.096522585
73	0x3e00e85b	0.12588637
74	0x3de3ffa6	0.111327454
75	0x3cb67bf8	0.02227591
76	0x3de2abfa	0.11067958
77	0x3dc0a04a	0.09405573
78	0xbdbe7f46	-0.09301619
79	0xbd5ea71c	-0.054358587
80	0xbe11f494	-0.14253455
81	0xbd59b10a	-0.053147353
82	0xbdd3fb67	-0.103506856
83	0x3d620878	0.055183858
84	0xbe151614	-0.14559203
85	0x3d903f26	0.070432946
86	0xbafd1d7e	-0.0019311158
87	0xbd4c1468	-0.04982415
88	0xbcad8408	-0.021181121
89	0x3d8ef76c	0.06980786
90	0x3e04e1f1	0.12976815
91	0x3df0a7be	0.11750744
92	0x3d9893b8	0.0745005
93	0x3cacfb78	0.021116003
94	0x3e17c7cf	0.14822315
95	0xbd2f34b8	-0.042774886
96	0x3d6b3ee0	0.05743301
97	0x3e1c21e1	0.15247299
98	0x3deebe42	0.116573825
99	0x3d96f9d2	0.07371868
100	0x3cc82d40	0.02443564
101	0xba2a1390	-0.00064879004
102	0xbd7b75ee	-0.061391763
103	0xbd9b6f81	-0.07589627
104	0xbdea5442	-0.11441852
105	0x3e11da23	0.14243369
106	0xbcd64838	-0.026157483
107	0xbd330ce6	-0.043713473
108	0x3db31ece	0.0874611
109	0x3d3572f4	0.04429908
110	0xbe0fc8df	-0.1404147
111	0x3de7067a	0.11280532
112	0x3ddba676	0.10725109
113	0x3cf94650	0.030429035
114	0x3e043f53	0.12914781
115	0x3c5df780	0.013547778
116	0xbdb36fe6	-0.08761577
117	0xbe182463	-0.1485763
118	0xbe1306aa	-0.14358011
119	0x3c735420	0.0148516
120	0x3d7a8804	0.06116487
121	0xbdd614bc	-0.104531735
122	0xbe0378b4	-0.12839013
123	0x3ce270d0	0.027641684
124	0x3de3cb9a	0.11122818
125	0xbc781f00	-0.01514411
126	0x3d24f348	0.040271074
127	0x3ac0c261	0.0014706367
128	0x3e036b25	0.12833841
129	0xbd61ad4a	-0.055096902
130	0x3dc824c2	0.09772636
131	0xbd2bacae	-0.041912727
132	0x3d9f476c	0.077772945
133	0xbe08d084	-0.13360792
134	0x3da6b318	0.08139628
135	0x3e1fc491	0.15602328
136	0xbd98ef78	-0.0746755
137	0xbdba4fb9	-0.09097237
138	0x3e092c97	0.13395916
139	0x3d1c3268	0.03813401
140	0x3ba387a0	0.004990533
141	0x3d169a24	0.036768094
142	0x3d2cd138	0.042191714
143	0xbd88b2df	-0.06674742
144	0x3de056f2	0.109540835
145	0x3b121300	0.0022289157
146	0x3dbb72a8	0.09152728
147	0xbdc322ce	-0.09528123
148	0xbdceb028	-0.10092193
149	0x3d27ff60	0.04101503
150	0x3d4d6584	0.05014564
151	0xbdbd9483	-0.09256842
152	0xbd76ec9c	-0.060284242
153	0x3b3e78c0	0.0029063672
154	0x3cb42500	0.0219903
155	0xbda7c1fe	-0.08191298
156	0x3c467670	0.012113199
157	0x3dfc561e	0.12321113
158	0x3c689630	0.014195964
159	0xbdcb2b2d	-0.099203445
160	0x3e023f0f	0.12719367
161	0x3dfc081e	0.12306236
162	0x3d279a8c	0.04091887
163	0x3de12baa	0.109946564
164	0xbdf0a5f8	-0.11750406
165	0xbe01d73e	-0.12679765
166	0x3dbc3002	0.09188844
167	0xbe08f8b4	-0.13376123
168	0x3d40be74	0.04705663
169	0xbcae9218	-0.021309897
170	0xbde5ffaa	-0.11230405
171	0x3e002c0d	0.12516804
172	0xbccccf30	-0.025001138
173	0xbd4624d4	-0.048374966
174	0x3d85c280	0.065312386
175	0x3daab44a	0.08335169
176	0xbd823e2b	-0.06359514
177	0x3e0999a5	0.13437517
178	0xbc306150	-0.010765389
179	0x3d8be964	0.06831625
180	0x3e1e27a5	0.1544481
181	0x3e048997	0.12943111
182	0x3d95ccb0	0.07314432
183	0xbe1c11fc	-0.15241235
184	0xbd3f8e5a	-0.046766616
185	0x3d5c2164	0.05374278
186	0xbcd8eb90	-0.026479512
187	0x3cb1fb88	0.021726385
188	0x3ce71448	0.028207913
189	0x3e12be45	0.14330395
190	0x3dc0c5a6	0.094126984
191	0x3d11d33c	0.03560184
192	0x3e0a4855	0.13504155
193	0xbca11ab0	-0.019666046
194	0x3dd2f126	0.10299902
195	0x3e1e28e9	0.15445293
196	0x3de503fa	0.11182399
197	0x3dbe8d9a	0.09304352
198	0x3af5d77e	0.0018756238
199	0x3de53982	0.11192609
200	0xbb6afc40	-0.003585592
201	0xbdfc6288	-0.12323481
202	0x3dc61552	0.09672035
203	0xbd3cf11c	-0.046128377
204	0x3de51e22	0.11187388
205	0xbe1980c9	-0.14990534
206	0xbd9d8e03	-0.07693102
207	0xbb211c3f	-0.0024583486
208	0x3d00eaac	0.0314738
209	0x3bc4a380	0.006000936
210	0x3cc4e630	0.024035543
211	0xbdcca1f4	-0.099918276
212	0xbe109156	-0.14117941
213	0x3d549304	0.051898018
214	0x3cfb6cb0	0.030691475
215	0x3dbcf5da	0.0922658
216	0x3d5b3f04	0.053526893
217	0xbe06406f	-0.13110517
218	0xbd5b0912	-0.053475447
219	0xbd8808c8	-0.066423
220	0xbd1c622e	-0.03817957
221	0x3e10cffb	0.14141838
222	0xbaae51af	-0.001329949
223	0x3e11b08d	0.14227505
224	0xbe038e6a	-0.12847295
225	0x3d47e984	0.048806682
226	0xbe037b17	-0.12839924
227	0x3c378460	0.011200994
228	0x3e0caf2d	0.137387
229	0x3d7eae74	0.06217809
230	0x3df4f552	0.11960854
231	0x3d571928	0.052514225
232	0xbd978063	-0.07397535
233	0xbd353ace	-0.044245534
234	0x3dc647de	0.09681676
235	0x3d5b2508	0.053502113
236	0xbd8f0650	-0.06983626
237	0x3c507670	0.01272355
238	0x3d5740ac	0.05255191
239	0xbcaf21c8	-0.021378413
240	0xbd2b9e28	-0.041898876
241	0xbdf09f7a	-0.11749168
242	0xbd4516c0	-0.0481174
243	0x3df5327a	0.11972518
244	0xbd804a3d	-0.0626416
245	0x3d97f73a	0.074202016
246	0x3b17b240	0.0023147017
247	0x3da09b96	0.07842176
248	0x3c8dc690	0.017306596
249	0xbe1159eb	-0.14194457
250	0x3d8ce46c	0.068795055
251	0xbdc6804c	-0.096924394
252	0x3cf95598	0.030436322
253	0xbddb2c76	-0.107018396
254	0x3d3644bc	0.044499144
255	0xbdc1574c	-0.09440479
